: Qwen3_5MoeForCausalLM(
  (model): Qwen3_5MoeTextModel(
    (embed_tokens): Embedding(248320, 2048)
    (layers): ModuleList(
      (0-2): 3 x Qwen3_5MoeDecoderLayer(
        (linear_attn): Qwen3_5MoeGatedDeltaNet(
          (act): SiLUActivation()
          (conv1d): Conv1d(8192, 8192, kernel_size=(4,), stride=(1,), padding=(3,), groups=8192, bias=False)
          (norm): Qwen3_5MoeRMSNormGated()
          (out_proj): Linear(in_features=4096, out_features=2048, bias=False)
          (in_proj_qkv): Linear(in_features=2048, out_features=8192, bias=False)
          (in_proj_z): Linear(in_features=2048, out_features=4096, bias=False)
          (in_proj_b): Linear(in_features=2048, out_features=32, bias=False)
          (in_proj_a): Linear(in_features=2048, out_features=32, bias=False)
        )
        (mlp): Qwen3_5MoeSparseMoeBlock(
          (gate): Qwen3_5MoeTopKRouter()
          (experts): Qwen3_5MoeExperts(
            (act_fn): SiLUActivation()
          )
          (shared_expert): Qwen3_5MoeMLP(
            (gate_proj): Linear(in_features=2048, out_features=512, bias=False)
            (up_proj): Linear(in_features=2048, out_features=512, bias=False)
            (down_proj): Linear(in_features=512, out_features=2048, bias=False)
            (act_fn): SiLUActivation()
          )
          (shared_expert_gate): Linear(in_features=2048, out_features=1, bias=False)
        )
        (input_layernorm): Qwen3_5MoeRMSNorm((2048,), eps=1e-06)
        (post_attention_layernorm): Qwen3_5MoeRMSNorm((2048,), eps=1e-06)
      )
      (3): Qwen3_5MoeDecoderLayer(
        (self_attn): Qwen3_5MoeAttention(
          (q_proj): Linear(in_features=2048, out_features=8192, bias=False)
          (k_proj): Linear(in_features=2048, out_features=512, bias=False)
          (v_proj): Linear(in_features=2048, out_features=512, bias=False)
          (o_proj): Linear(in_features=4096, out_features=2048, bias=False)
          (q_norm): Qwen3_5MoeRMSNorm((256,), eps=1e-06)
          (k_norm): Qwen3_5MoeRMSNorm((256,), eps=1e-06)
        )
        (mlp): Qwen3_5MoeSparseMoeBlock(
          (gate): Qwen3_5MoeTopKRouter()
          (experts): Qwen3_5MoeExperts(
            (act_fn): SiLUActivation()
          )
          (shared_expert): Qwen3_5MoeMLP(
            (gate_proj): Linear(in_features=2048, out_features=512, bias=False)
            (up_proj): Linear(in_features=2048, out_features=512, bias=False)
            (down_proj): Linear(in_features=512, out_features=2048, bias=False)
            (act_fn): SiLUActivation()
          )
          (shared_expert_gate): Linear(in_features=2048, out_features=1, bias=False)
        )
        (input_layernorm): Qwen3_5MoeRMSNorm((2048,), eps=1e-06)
        (post_attention_layernorm): Qwen3_5MoeRMSNorm((2048,), eps=1e-06)
      )
      (4-6): 3 x Qwen3_5MoeDecoderLayer(
        (linear_attn): Qwen3_5MoeGatedDeltaNet(
          (act): SiLUActivation()
          (conv1d): Conv1d(8192, 8192, kernel_size=(4,), stride=(1,), padding=(3,), groups=8192, bias=False)
          (norm): Qwen3_5MoeRMSNormGated()
          (out_proj): Linear(in_features=4096, out_features=2048, bias=False)
          (in_proj_qkv): Linear(in_features=2048, out_features=8192, bias=False)
          (in_proj_z): Linear(in_features=2048, out_features=4096, bias=False)
          (in_proj_b): Linear(in_features=2048, out_features=32, bias=False)
          (in_proj_a): Linear(in_features=2048, out_features=32, bias=False)
        )
        (mlp): Qwen3_5MoeSparseMoeBlock(
          (gate): Qwen3_5MoeTopKRouter()
          (experts): Qwen3_5MoeExperts(
            (act_fn): SiLUActivation()
          )
          (shared_expert): Qwen3_5MoeMLP(
            (gate_proj): Linear(in_features=2048, out_features=512, bias=False)
            (up_proj): Linear(in_features=2048, out_features=512, bias=False)
            (down_proj): Linear(in_features=512, out_features=2048, bias=False)
            (act_fn): SiLUActivation()
          )
          (shared_expert_gate): Linear(in_features=2048, out_features=1, bias=False)
        )
        (input_layernorm): Qwen3_5MoeRMSNorm((2048,), eps=1e-06)
        (post_attention_layernorm): Qwen3_5MoeRMSNorm((2048,), eps=1e-06)
      )
      (7): Qwen3_5MoeDecoderLayer(
        (self_attn): Qwen3_5MoeAttention(
          (q_proj): Linear(in_features=2048, out_features=8192, bias=False)
          (k_proj): Linear(in_features=2048, out_features=512, bias=False)
          (v_proj): Linear(in_features=2048, out_features=512, bias=False)
          (o_proj): Linear(in_features=4096, out_features=2048, bias=False)
          (q_norm): Qwen3_5MoeRMSNorm((256,), eps=1e-06)
          (k_norm): Qwen3_5MoeRMSNorm((256,), eps=1e-06)
        )
        (mlp): Qwen3_5MoeSparseMoeBlock(
          (gate): Qwen3_5MoeTopKRouter()
          (experts): Qwen3_5MoeExperts(
            (act_fn): SiLUActivation()
          )
          (shared_expert): Qwen3_5MoeMLP(
            (gate_proj): Linear(in_features=2048, out_features=512, bias=False)
            (up_proj): Linear(in_features=2048, out_features=512, bias=False)
            (down_proj): Linear(in_features=512, out_features=2048, bias=False)
            (act_fn): SiLUActivation()
          )
          (shared_expert_gate): Linear(in_features=2048, out_features=1, bias=False)
        )
        (input_layernorm): Qwen3_5MoeRMSNorm((2048,), eps=1e-06)
        (post_attention_layernorm): Qwen3_5MoeRMSNorm((2048,), eps=1e-06)
      )
      (8-10): 3 x Qwen3_5MoeDecoderLayer(
        (linear_attn): Qwen3_5MoeGatedDeltaNet(
          (act): SiLUActivation()
          (conv1d): Conv1d(8192, 8192, kernel_size=(4,), stride=(1,), padding=(3,), groups=8192, bias=False)
          (norm): Qwen3_5MoeRMSNormGated()
          (out_proj): Linear(in_features=4096, out_features=2048, bias=False)
          (in_proj_qkv): Linear(in_features=2048, out_features=8192, bias=False)
          (in_proj_z): Linear(in_features=2048, out_features=4096, bias=False)
          (in_proj_b): Linear(in_features=2048, out_features=32, bias=False)
          (in_proj_a): Linear(in_features=2048, out_features=32, bias=False)
        )
        (mlp): Qwen3_5MoeSparseMoeBlock(
          (gate): Qwen3_5MoeTopKRouter()
          (experts): Qwen3_5MoeExperts(
            (act_fn): SiLUActivation()
          )
          (shared_expert): Qwen3_5MoeMLP(
            (gate_proj): Linear(in_features=2048, out_features=512, bias=False)
            (up_proj): Linear(in_features=2048, out_features=512, bias=False)
            (down_proj): Linear(in_features=512, out_features=2048, bias=False)
            (act_fn): SiLUActivation()
          )
          (shared_expert_gate): Linear(in_features=2048, out_features=1, bias=False)
        )
        (input_layernorm): Qwen3_5MoeRMSNorm((2048,), eps=1e-06)
        (post_attention_layernorm): Qwen3_5MoeRMSNorm((2048,), eps=1e-06)
      )
      (11): Qwen3_5MoeDecoderLayer(
        (self_attn): Qwen3_5MoeAttention(
          (q_proj): Linear(in_features=2048, out_features=8192, bias=False)
          (k_proj): Linear(in_features=2048, out_features=512, bias=False)
          (v_proj): Linear(in_features=2048, out_features=512, bias=False)
          (o_proj): Linear(in_features=4096, out_features=2048, bias=False)
          (q_norm): Qwen3_5MoeRMSNorm((256,), eps=1e-06)
          (k_norm): Qwen3_5MoeRMSNorm((256,), eps=1e-06)
        )
        (mlp): Qwen3_5MoeSparseMoeBlock(
          (gate): Qwen3_5MoeTopKRouter()
          (experts): Qwen3_5MoeExperts(
            (act_fn): SiLUActivation()
          )
          (shared_expert): Qwen3_5MoeMLP(
            (gate_proj): Linear(in_features=2048, out_features=512, bias=False)
            (up_proj): Linear(in_features=2048, out_features=512, bias=False)
            (down_proj): Linear(in_features=512, out_features=2048, bias=False)
            (act_fn): SiLUActivation()
          )
          (shared_expert_gate): Linear(in_features=2048, out_features=1, bias=False)
        )
        (input_layernorm): Qwen3_5MoeRMSNorm((2048,), eps=1e-06)
        (post_attention_layernorm): Qwen3_5MoeRMSNorm((2048,), eps=1e-06)
      )
      (12-14): 3 x Qwen3_5MoeDecoderLayer(
        (linear_attn): Qwen3_5MoeGatedDeltaNet(
          (act): SiLUActivation()
          (conv1d): Conv1d(8192, 8192, kernel_size=(4,), stride=(1,), padding=(3,), groups=8192, bias=False)
          (norm): Qwen3_5MoeRMSNormGated()
          (out_proj): Linear(in_features=4096, out_features=2048, bias=False)
          (in_proj_qkv): Linear(in_features=2048, out_features=8192, bias=False)
          (in_proj_z): Linear(in_features=2048, out_features=4096, bias=False)
          (in_proj_b): Linear(in_features=2048, out_features=32, bias=False)
          (in_proj_a): Linear(in_features=2048, out_features=32, bias=False)
        )
        (mlp): Qwen3_5MoeSparseMoeBlock(
          (gate): Qwen3_5MoeTopKRouter()
          (experts): Qwen3_5MoeExperts(
            (act_fn): SiLUActivation()
          )
          (shared_expert): Qwen3_5MoeMLP(
            (gate_proj): Linear(in_features=2048, out_features=512, bias=False)
            (up_proj): Linear(in_features=2048, out_features=512, bias=False)
            (down_proj): Linear(in_features=512, out_features=2048, bias=False)
            (act_fn): SiLUActivation()
          )
          (shared_expert_gate): Linear(in_features=2048, out_features=1, bias=False)
        )
        (input_layernorm): Qwen3_5MoeRMSNorm((2048,), eps=1e-06)
        (post_attention_layernorm): Qwen3_5MoeRMSNorm((2048,), eps=1e-06)
      )
      (15): Qwen3_5MoeDecoderLayer(
        (self_attn): Qwen3_5MoeAttention(
          (q_proj): Linear(in_features=2048, out_features=8192, bias=False)
          (k_proj): Linear(in_features=2048, out_features=512, bias=False)
          (v_proj): Linear(in_features=2048, out_features=512, bias=False)
          (o_proj): Linear(in_features=4096, out_features=2048, bias=False)
          (q_norm): Qwen3_5MoeRMSNorm((256,), eps=1e-06)
          (k_norm): Qwen3_5MoeRMSNorm((256,), eps=1e-06)
        )
        (mlp): Qwen3_5MoeSparseMoeBlock(
          (gate): Qwen3_5MoeTopKRouter()
          (experts): Qwen3_5MoeExperts(
            (act_fn): SiLUActivation()
          )
          (shared_expert): Qwen3_5MoeMLP(
            (gate_proj): Linear(in_features=2048, out_features=512, bias=False)
            (up_proj): Linear(in_features=2048, out_features=512, bias=False)
            (down_proj): Linear(in_features=512, out_features=2048, bias=False)
            (act_fn): SiLUActivation()
          )
          (shared_expert_gate): Linear(in_features=2048, out_features=1, bias=False)
        )
        (input_layernorm): Qwen3_5MoeRMSNorm((2048,), eps=1e-06)
        (post_attention_layernorm): Qwen3_5MoeRMSNorm((2048,), eps=1e-06)
      )
      (16-18): 3 x Qwen3_5MoeDecoderLayer(
        (linear_attn): Qwen3_5MoeGatedDeltaNet(
          (act): SiLUActivation()
          (conv1d): Conv1d(8192, 8192, kernel_size=(4,), stride=(1,), padding=(3,), groups=8192, bias=False)
          (norm): Qwen3_5MoeRMSNormGated()
          (out_proj): Linear(in_features=4096, out_features=2048, bias=False)
          (in_proj_qkv): Linear(in_features=2048, out_features=8192, bias=False)
          (in_proj_z): Linear(in_features=2048, out_features=4096, bias=False)
          (in_proj_b): Linear(in_features=2048, out_features=32, bias=False)
          (in_proj_a): Linear(in_features=2048, out_features=32, bias=False)
        )
        (mlp): Qwen3_5MoeSparseMoeBlock(
          (gate): Qwen3_5MoeTopKRouter()
          (experts): Qwen3_5MoeExperts(
            (act_fn): SiLUActivation()
          )
          (shared_expert): Qwen3_5MoeMLP(
            (gate_proj): Linear(in_features=2048, out_features=512, bias=False)
            (up_proj): Linear(in_features=2048, out_features=512, bias=False)
            (down_proj): Linear(in_features=512, out_features=2048, bias=False)
            (act_fn): SiLUActivation()
          )
          (shared_expert_gate): Linear(in_features=2048, out_features=1, bias=False)
        )
        (input_layernorm): Qwen3_5MoeRMSNorm((2048,), eps=1e-06)
        (post_attention_layernorm): Qwen3_5MoeRMSNorm((2048,), eps=1e-06)
      )
      (19): Qwen3_5MoeDecoderLayer(
        (self_attn): Qwen3_5MoeAttention(
          (q_proj): Linear(in_features=2048, out_features=8192, bias=False)
          (k_proj): Linear(in_features=2048, out_features=512, bias=False)
          (v_proj): Linear(in_features=2048, out_features=512, bias=False)
          (o_proj): Linear(in_features=4096, out_features=2048, bias=False)
          (q_norm): Qwen3_5MoeRMSNorm((256,), eps=1e-06)
          (k_norm): Qwen3_5MoeRMSNorm((256,), eps=1e-06)
        )
        (mlp): Qwen3_5MoeSparseMoeBlock(
          (gate): Qwen3_5MoeTopKRouter()
          (experts): Qwen3_5MoeExperts(
            (act_fn): SiLUActivation()
          )
          (shared_expert): Qwen3_5MoeMLP(
            (gate_proj): Linear(in_features=2048, out_features=512, bias=False)
            (up_proj): Linear(in_features=2048, out_features=512, bias=False)
            (down_proj): Linear(in_features=512, out_features=2048, bias=False)
            (act_fn): SiLUActivation()
          )
          (shared_expert_gate): Linear(in_features=2048, out_features=1, bias=False)
        )
        (input_layernorm): Qwen3_5MoeRMSNorm((2048,), eps=1e-06)
        (post_attention_layernorm): Qwen3_5MoeRMSNorm((2048,), eps=1e-06)
      )
      (20-22): 3 x Qwen3_5MoeDecoderLayer(
        (linear_attn): Qwen3_5MoeGatedDeltaNet(
          (act): SiLUActivation()
          (conv1d): Conv1d(8192, 8192, kernel_size=(4,), stride=(1,), padding=(3,), groups=8192, bias=False)
          (norm): Qwen3_5MoeRMSNormGated()
          (out_proj): Linear(in_features=4096, out_features=2048, bias=False)
          (in_proj_qkv): Linear(in_features=2048, out_features=8192, bias=False)
          (in_proj_z): Linear(in_features=2048, out_features=4096, bias=False)
          (in_proj_b): Linear(in_features=2048, out_features=32, bias=False)
          (in_proj_a): Linear(in_features=2048, out_features=32, bias=False)
        )
        (mlp): Qwen3_5MoeSparseMoeBlock(
          (gate): Qwen3_5MoeTopKRouter()
          (experts): Qwen3_5MoeExperts(
            (act_fn): SiLUActivation()
          )
          (shared_expert): Qwen3_5MoeMLP(
            (gate_proj): Linear(in_features=2048, out_features=512, bias=False)
            (up_proj): Linear(in_features=2048, out_features=512, bias=False)
            (down_proj): Linear(in_features=512, out_features=2048, bias=False)
            (act_fn): SiLUActivation()
          )
          (shared_expert_gate): Linear(in_features=2048, out_features=1, bias=False)
        )
        (input_layernorm): Qwen3_5MoeRMSNorm((2048,), eps=1e-06)
        (post_attention_layernorm): Qwen3_5MoeRMSNorm((2048,), eps=1e-06)
      )
      (23): Qwen3_5MoeDecoderLayer(
        (self_attn): Qwen3_5MoeAttention(
          (q_proj): Linear(in_features=2048, out_features=8192, bias=False)
          (k_proj): Linear(in_features=2048, out_features=512, bias=False)
          (v_proj): Linear(in_features=2048, out_features=512, bias=False)
          (o_proj): Linear(in_features=4096, out_features=2048, bias=False)
          (q_norm): Qwen3_5MoeRMSNorm((256,), eps=1e-06)
          (k_norm): Qwen3_5MoeRMSNorm((256,), eps=1e-06)
        )
        (mlp): Qwen3_5MoeSparseMoeBlock(
          (gate): Qwen3_5MoeTopKRouter()
          (experts): Qwen3_5MoeExperts(
            (act_fn): SiLUActivation()
          )
          (shared_expert): Qwen3_5MoeMLP(
            (gate_proj): Linear(in_features=2048, out_features=512, bias=False)
            (up_proj): Linear(in_features=2048, out_features=512, bias=False)
            (down_proj): Linear(in_features=512, out_features=2048, bias=False)
            (act_fn): SiLUActivation()
          )
          (shared_expert_gate): Linear(in_features=2048, out_features=1, bias=False)
        )
        (input_layernorm): Qwen3_5MoeRMSNorm((2048,), eps=1e-06)
        (post_attention_layernorm): Qwen3_5MoeRMSNorm((2048,), eps=1e-06)
      )
      (24-26): 3 x Qwen3_5MoeDecoderLayer(
        (linear_attn): Qwen3_5MoeGatedDeltaNet(
          (act): SiLUActivation()
          (conv1d): Conv1d(8192, 8192, kernel_size=(4,), stride=(1,), padding=(3,), groups=8192, bias=False)
          (norm): Qwen3_5MoeRMSNormGated()
          (out_proj): Linear(in_features=4096, out_features=2048, bias=False)
          (in_proj_qkv): Linear(in_features=2048, out_features=8192, bias=False)
          (in_proj_z): Linear(in_features=2048, out_features=4096, bias=False)
          (in_proj_b): Linear(in_features=2048, out_features=32, bias=False)
          (in_proj_a): Linear(in_features=2048, out_features=32, bias=False)
        )
        (mlp): Qwen3_5MoeSparseMoeBlock(
          (gate): Qwen3_5MoeTopKRouter()
          (experts): Qwen3_5MoeExperts(
            (act_fn): SiLUActivation()
          )
          (shared_expert): Qwen3_5MoeMLP(
            (gate_proj): Linear(in_features=2048, out_features=512, bias=False)
            (up_proj): Linear(in_features=2048, out_features=512, bias=False)
            (down_proj): Linear(in_features=512, out_features=2048, bias=False)
            (act_fn): SiLUActivation()
          )
          (shared_expert_gate): Linear(in_features=2048, out_features=1, bias=False)
        )
        (input_layernorm): Qwen3_5MoeRMSNorm((2048,), eps=1e-06)
        (post_attention_layernorm): Qwen3_5MoeRMSNorm((2048,), eps=1e-06)
      )
      (27): Qwen3_5MoeDecoderLayer(
        (self_attn): Qwen3_5MoeAttention(
          (q_proj): Linear(in_features=2048, out_features=8192, bias=False)
          (k_proj): Linear(in_features=2048, out_features=512, bias=False)
          (v_proj): Linear(in_features=2048, out_features=512, bias=False)
          (o_proj): Linear(in_features=4096, out_features=2048, bias=False)
          (q_norm): Qwen3_5MoeRMSNorm((256,), eps=1e-06)
          (k_norm): Qwen3_5MoeRMSNorm((256,), eps=1e-06)
        )
        (mlp): Qwen3_5MoeSparseMoeBlock(
          (gate): Qwen3_5MoeTopKRouter()
          (experts): Qwen3_5MoeExperts(
            (act_fn): SiLUActivation()
          )
          (shared_expert): Qwen3_5MoeMLP(
            (gate_proj): Linear(in_features=2048, out_features=512, bias=False)
            (up_proj): Linear(in_features=2048, out_features=512, bias=False)
            (down_proj): Linear(in_features=512, out_features=2048, bias=False)
            (act_fn): SiLUActivation()
          )
          (shared_expert_gate): Linear(in_features=2048, out_features=1, bias=False)
        )
        (input_layernorm): Qwen3_5MoeRMSNorm((2048,), eps=1e-06)
        (post_attention_layernorm): Qwen3_5MoeRMSNorm((2048,), eps=1e-06)
      )
      (28-30): 3 x Qwen3_5MoeDecoderLayer(
        (linear_attn): Qwen3_5MoeGatedDeltaNet(
          (act): SiLUActivation()
          (conv1d): Conv1d(8192, 8192, kernel_size=(4,), stride=(1,), padding=(3,), groups=8192, bias=False)
          (norm): Qwen3_5MoeRMSNormGated()
          (out_proj): Linear(in_features=4096, out_features=2048, bias=False)
          (in_proj_qkv): Linear(in_features=2048, out_features=8192, bias=False)
          (in_proj_z): Linear(in_features=2048, out_features=4096, bias=False)
          (in_proj_b): Linear(in_features=2048, out_features=32, bias=False)
          (in_proj_a): Linear(in_features=2048, out_features=32, bias=False)
        )
        (mlp): Qwen3_5MoeSparseMoeBlock(
          (gate): Qwen3_5MoeTopKRouter()
          (experts): Qwen3_5MoeExperts(
            (act_fn): SiLUActivation()
          )
          (shared_expert): Qwen3_5MoeMLP(
            (gate_proj): Linear(in_features=2048, out_features=512, bias=False)
            (up_proj): Linear(in_features=2048, out_features=512, bias=False)
            (down_proj): Linear(in_features=512, out_features=2048, bias=False)
            (act_fn): SiLUActivation()
          )
          (shared_expert_gate): Linear(in_features=2048, out_features=1, bias=False)
        )
        (input_layernorm): Qwen3_5MoeRMSNorm((2048,), eps=1e-06)
        (post_attention_layernorm): Qwen3_5MoeRMSNorm((2048,), eps=1e-06)
      )
      (31): Qwen3_5MoeDecoderLayer(
        (self_attn): Qwen3_5MoeAttention(
          (q_proj): Linear(in_features=2048, out_features=8192, bias=False)
          (k_proj): Linear(in_features=2048, out_features=512, bias=False)
          (v_proj): Linear(in_features=2048, out_features=512, bias=False)
          (o_proj): Linear(in_features=4096, out_features=2048, bias=False)
          (q_norm): Qwen3_5MoeRMSNorm((256,), eps=1e-06)
          (k_norm): Qwen3_5MoeRMSNorm((256,), eps=1e-06)
        )
        (mlp): Qwen3_5MoeSparseMoeBlock(
          (gate): Qwen3_5MoeTopKRouter()
          (experts): Qwen3_5MoeExperts(
            (act_fn): SiLUActivation()
          )
          (shared_expert): Qwen3_5MoeMLP(
            (gate_proj): Linear(in_features=2048, out_features=512, bias=False)
            (up_proj): Linear(in_features=2048, out_features=512, bias=False)
            (down_proj): Linear(in_features=512, out_features=2048, bias=False)
            (act_fn): SiLUActivation()
          )
          (shared_expert_gate): Linear(in_features=2048, out_features=1, bias=False)
        )
        (input_layernorm): Qwen3_5MoeRMSNorm((2048,), eps=1e-06)
        (post_attention_layernorm): Qwen3_5MoeRMSNorm((2048,), eps=1e-06)
      )
      (32-34): 3 x Qwen3_5MoeDecoderLayer(
        (linear_attn): Qwen3_5MoeGatedDeltaNet(
          (act): SiLUActivation()
          (conv1d): Conv1d(8192, 8192, kernel_size=(4,), stride=(1,), padding=(3,), groups=8192, bias=False)
          (norm): Qwen3_5MoeRMSNormGated()
          (out_proj): Linear(in_features=4096, out_features=2048, bias=False)
          (in_proj_qkv): Linear(in_features=2048, out_features=8192, bias=False)
          (in_proj_z): Linear(in_features=2048, out_features=4096, bias=False)
          (in_proj_b): Linear(in_features=2048, out_features=32, bias=False)
          (in_proj_a): Linear(in_features=2048, out_features=32, bias=False)
        )
        (mlp): Qwen3_5MoeSparseMoeBlock(
          (gate): Qwen3_5MoeTopKRouter()
          (experts): Qwen3_5MoeExperts(
            (act_fn): SiLUActivation()
          )
          (shared_expert): Qwen3_5MoeMLP(
            (gate_proj): Linear(in_features=2048, out_features=512, bias=False)
            (up_proj): Linear(in_features=2048, out_features=512, bias=False)
            (down_proj): Linear(in_features=512, out_features=2048, bias=False)
            (act_fn): SiLUActivation()
          )
          (shared_expert_gate): Linear(in_features=2048, out_features=1, bias=False)
        )
        (input_layernorm): Qwen3_5MoeRMSNorm((2048,), eps=1e-06)
        (post_attention_layernorm): Qwen3_5MoeRMSNorm((2048,), eps=1e-06)
      )
      (35): Qwen3_5MoeDecoderLayer(
        (self_attn): Qwen3_5MoeAttention(
          (q_proj): Linear(in_features=2048, out_features=8192, bias=False)
          (k_proj): Linear(in_features=2048, out_features=512, bias=False)
          (v_proj): Linear(in_features=2048, out_features=512, bias=False)
          (o_proj): Linear(in_features=4096, out_features=2048, bias=False)
          (q_norm): Qwen3_5MoeRMSNorm((256,), eps=1e-06)
          (k_norm): Qwen3_5MoeRMSNorm((256,), eps=1e-06)
        )
        (mlp): Qwen3_5MoeSparseMoeBlock(
          (gate): Qwen3_5MoeTopKRouter()
          (experts): Qwen3_5MoeExperts(
            (act_fn): SiLUActivation()
          )
          (shared_expert): Qwen3_5MoeMLP(
            (gate_proj): Linear(in_features=2048, out_features=512, bias=False)
            (up_proj): Linear(in_features=2048, out_features=512, bias=False)
            (down_proj): Linear(in_features=512, out_features=2048, bias=False)
            (act_fn): SiLUActivation()
          )
          (shared_expert_gate): Linear(in_features=2048, out_features=1, bias=False)
        )
        (input_layernorm): Qwen3_5MoeRMSNorm((2048,), eps=1e-06)
        (post_attention_layernorm): Qwen3_5MoeRMSNorm((2048,), eps=1e-06)
      )
      (36-38): 3 x Qwen3_5MoeDecoderLayer(
        (linear_attn): Qwen3_5MoeGatedDeltaNet(
          (act): SiLUActivation()
          (conv1d): Conv1d(8192, 8192, kernel_size=(4,), stride=(1,), padding=(3,), groups=8192, bias=False)
          (norm): Qwen3_5MoeRMSNormGated()
          (out_proj): Linear(in_features=4096, out_features=2048, bias=False)
          (in_proj_qkv): Linear(in_features=2048, out_features=8192, bias=False)
          (in_proj_z): Linear(in_features=2048, out_features=4096, bias=False)
          (in_proj_b): Linear(in_features=2048, out_features=32, bias=False)
          (in_proj_a): Linear(in_features=2048, out_features=32, bias=False)
        )
        (mlp): Qwen3_5MoeSparseMoeBlock(
          (gate): Qwen3_5MoeTopKRouter()
          (experts): Qwen3_5MoeExperts(
            (act_fn): SiLUActivation()
          )
          (shared_expert): Qwen3_5MoeMLP(
            (gate_proj): Linear(in_features=2048, out_features=512, bias=False)
            (up_proj): Linear(in_features=2048, out_features=512, bias=False)
            (down_proj): Linear(in_features=512, out_features=2048, bias=False)
            (act_fn): SiLUActivation()
          )
          (shared_expert_gate): Linear(in_features=2048, out_features=1, bias=False)
        )
        (input_layernorm): Qwen3_5MoeRMSNorm((2048,), eps=1e-06)
        (post_attention_layernorm): Qwen3_5MoeRMSNorm((2048,), eps=1e-06)
      )
      (39): Qwen3_5MoeDecoderLayer(
        (self_attn): Qwen3_5MoeAttention(
          (q_proj): Linear(in_features=2048, out_features=8192, bias=False)
          (k_proj): Linear(in_features=2048, out_features=512, bias=False)
          (v_proj): Linear(in_features=2048, out_features=512, bias=False)
          (o_proj): Linear(in_features=4096, out_features=2048, bias=False)
          (q_norm): Qwen3_5MoeRMSNorm((256,), eps=1e-06)
          (k_norm): Qwen3_5MoeRMSNorm((256,), eps=1e-06)
        )
        (mlp): Qwen3_5MoeSparseMoeBlock(
          (gate): Qwen3_5MoeTopKRouter()
          (experts): Qwen3_5MoeExperts(
            (act_fn): SiLUActivation()
          )
          (shared_expert): Qwen3_5MoeMLP(
            (gate_proj): Linear(in_features=2048, out_features=512, bias=False)
            (up_proj): Linear(in_features=2048, out_features=512, bias=False)
            (down_proj): Linear(in_features=512, out_features=2048, bias=False)
            (act_fn): SiLUActivation()
          )
          (shared_expert_gate): Linear(in_features=2048, out_features=1, bias=False)
        )
        (input_layernorm): Qwen3_5MoeRMSNorm((2048,), eps=1e-06)
        (post_attention_layernorm): Qwen3_5MoeRMSNorm((2048,), eps=1e-06)
      )
    )
    (norm): Qwen3_5MoeRMSNorm((2048,), eps=1e-06)
    (rotary_emb): Qwen3_5MoeTextRotaryEmbedding()
  )
  (lm_head): Linear(in_features=2048, out_features=248320, bias=False)
)
model: Qwen3_5MoeTextModel(
  (embed_tokens): Embedding(248320, 2048)
  (layers): ModuleList(
    (0-2): 3 x Qwen3_5MoeDecoderLayer(
      (linear_attn): Qwen3_5MoeGatedDeltaNet(
        (act): SiLUActivation()
        (conv1d): Conv1d(8192, 8192, kernel_size=(4,), stride=(1,), padding=(3,), groups=8192, bias=False)
        (norm): Qwen3_5MoeRMSNormGated()
        (out_proj): Linear(in_features=4096, out_features=2048, bias=False)
        (in_proj_qkv): Linear(in_features=2048, out_features=8192, bias=False)
        (in_proj_z): Linear(in_features=2048, out_features=4096, bias=False)
        (in_proj_b): Linear(in_features=2048, out_features=32, bias=False)
        (in_proj_a): Linear(in_features=2048, out_features=32, bias=False)
      )
      (mlp): Qwen3_5MoeSparseMoeBlock(
        (gate): Qwen3_5MoeTopKRouter()
        (experts): Qwen3_5MoeExperts(
          (act_fn): SiLUActivation()
        )
        (shared_expert): Qwen3_5MoeMLP(
          (gate_proj): Linear(in_features=2048, out_features=512, bias=False)
          (up_proj): Linear(in_features=2048, out_features=512, bias=False)
          (down_proj): Linear(in_features=512, out_features=2048, bias=False)
          (act_fn): SiLUActivation()
        )
        (shared_expert_gate): Linear(in_features=2048, out_features=1, bias=False)
      )
      (input_layernorm): Qwen3_5MoeRMSNorm((2048,), eps=1e-06)
      (post_attention_layernorm): Qwen3_5MoeRMSNorm((2048,), eps=1e-06)
    )
    (3): Qwen3_5MoeDecoderLayer(
      (self_attn): Qwen3_5MoeAttention(
        (q_proj): Linear(in_features=2048, out_features=8192, bias=False)
        (k_proj): Linear(in_features=2048, out_features=512, bias=False)
        (v_proj): Linear(in_features=2048, out_features=512, bias=False)
        (o_proj): Linear(in_features=4096, out_features=2048, bias=False)
        (q_norm): Qwen3_5MoeRMSNorm((256,), eps=1e-06)
        (k_norm): Qwen3_5MoeRMSNorm((256,), eps=1e-06)
      )
      (mlp): Qwen3_5MoeSparseMoeBlock(
        (gate): Qwen3_5MoeTopKRouter()
        (experts): Qwen3_5MoeExperts(
          (act_fn): SiLUActivation()
        )
        (shared_expert): Qwen3_5MoeMLP(
          (gate_proj): Linear(in_features=2048, out_features=512, bias=False)
          (up_proj): Linear(in_features=2048, out_features=512, bias=False)
          (down_proj): Linear(in_features=512, out_features=2048, bias=False)
          (act_fn): SiLUActivation()
        )
        (shared_expert_gate): Linear(in_features=2048, out_features=1, bias=False)
      )
      (input_layernorm): Qwen3_5MoeRMSNorm((2048,), eps=1e-06)
      (post_attention_layernorm): Qwen3_5MoeRMSNorm((2048,), eps=1e-06)
    )
    (4-6): 3 x Qwen3_5MoeDecoderLayer(
      (linear_attn): Qwen3_5MoeGatedDeltaNet(
        (act): SiLUActivation()
        (conv1d): Conv1d(8192, 8192, kernel_size=(4,), stride=(1,), padding=(3,), groups=8192, bias=False)
        (norm): Qwen3_5MoeRMSNormGated()
        (out_proj): Linear(in_features=4096, out_features=2048, bias=False)
        (in_proj_qkv): Linear(in_features=2048, out_features=8192, bias=False)
        (in_proj_z): Linear(in_features=2048, out_features=4096, bias=False)
        (in_proj_b): Linear(in_features=2048, out_features=32, bias=False)
        (in_proj_a): Linear(in_features=2048, out_features=32, bias=False)
      )
      (mlp): Qwen3_5MoeSparseMoeBlock(
        (gate): Qwen3_5MoeTopKRouter()
        (experts): Qwen3_5MoeExperts(
          (act_fn): SiLUActivation()
        )
        (shared_expert): Qwen3_5MoeMLP(
          (gate_proj): Linear(in_features=2048, out_features=512, bias=False)
          (up_proj): Linear(in_features=2048, out_features=512, bias=False)
          (down_proj): Linear(in_features=512, out_features=2048, bias=False)
          (act_fn): SiLUActivation()
        )
        (shared_expert_gate): Linear(in_features=2048, out_features=1, bias=False)
      )
      (input_layernorm): Qwen3_5MoeRMSNorm((2048,), eps=1e-06)
      (post_attention_layernorm): Qwen3_5MoeRMSNorm((2048,), eps=1e-06)
    )
    (7): Qwen3_5MoeDecoderLayer(
      (self_attn): Qwen3_5MoeAttention(
        (q_proj): Linear(in_features=2048, out_features=8192, bias=False)
        (k_proj): Linear(in_features=2048, out_features=512, bias=False)
        (v_proj): Linear(in_features=2048, out_features=512, bias=False)
        (o_proj): Linear(in_features=4096, out_features=2048, bias=False)
        (q_norm): Qwen3_5MoeRMSNorm((256,), eps=1e-06)
        (k_norm): Qwen3_5MoeRMSNorm((256,), eps=1e-06)
      )
      (mlp): Qwen3_5MoeSparseMoeBlock(
        (gate): Qwen3_5MoeTopKRouter()
        (experts): Qwen3_5MoeExperts(
          (act_fn): SiLUActivation()
        )
        (shared_expert): Qwen3_5MoeMLP(
          (gate_proj): Linear(in_features=2048, out_features=512, bias=False)
          (up_proj): Linear(in_features=2048, out_features=512, bias=False)
          (down_proj): Linear(in_features=512, out_features=2048, bias=False)
          (act_fn): SiLUActivation()
        )
        (shared_expert_gate): Linear(in_features=2048, out_features=1, bias=False)
      )
      (input_layernorm): Qwen3_5MoeRMSNorm((2048,), eps=1e-06)
      (post_attention_layernorm): Qwen3_5MoeRMSNorm((2048,), eps=1e-06)
    )
    (8-10): 3 x Qwen3_5MoeDecoderLayer(
      (linear_attn): Qwen3_5MoeGatedDeltaNet(
        (act): SiLUActivation()
        (conv1d): Conv1d(8192, 8192, kernel_size=(4,), stride=(1,), padding=(3,), groups=8192, bias=False)
        (norm): Qwen3_5MoeRMSNormGated()
        (out_proj): Linear(in_features=4096, out_features=2048, bias=False)
        (in_proj_qkv): Linear(in_features=2048, out_features=8192, bias=False)
        (in_proj_z): Linear(in_features=2048, out_features=4096, bias=False)
        (in_proj_b): Linear(in_features=2048, out_features=32, bias=False)
        (in_proj_a): Linear(in_features=2048, out_features=32, bias=False)
      )
      (mlp): Qwen3_5MoeSparseMoeBlock(
        (gate): Qwen3_5MoeTopKRouter()
        (experts): Qwen3_5MoeExperts(
          (act_fn): SiLUActivation()
        )
        (shared_expert): Qwen3_5MoeMLP(
          (gate_proj): Linear(in_features=2048, out_features=512, bias=False)
          (up_proj): Linear(in_features=2048, out_features=512, bias=False)
          (down_proj): Linear(in_features=512, out_features=2048, bias=False)
          (act_fn): SiLUActivation()
        )
        (shared_expert_gate): Linear(in_features=2048, out_features=1, bias=False)
      )
      (input_layernorm): Qwen3_5MoeRMSNorm((2048,), eps=1e-06)
      (post_attention_layernorm): Qwen3_5MoeRMSNorm((2048,), eps=1e-06)
    )
    (11): Qwen3_5MoeDecoderLayer(
      (self_attn): Qwen3_5MoeAttention(
        (q_proj): Linear(in_features=2048, out_features=8192, bias=False)
        (k_proj): Linear(in_features=2048, out_features=512, bias=False)
        (v_proj): Linear(in_features=2048, out_features=512, bias=False)
        (o_proj): Linear(in_features=4096, out_features=2048, bias=False)
        (q_norm): Qwen3_5MoeRMSNorm((256,), eps=1e-06)
        (k_norm): Qwen3_5MoeRMSNorm((256,), eps=1e-06)
      )
      (mlp): Qwen3_5MoeSparseMoeBlock(
        (gate): Qwen3_5MoeTopKRouter()
        (experts): Qwen3_5MoeExperts(
          (act_fn): SiLUActivation()
        )
        (shared_expert): Qwen3_5MoeMLP(
          (gate_proj): Linear(in_features=2048, out_features=512, bias=False)
          (up_proj): Linear(in_features=2048, out_features=512, bias=False)
          (down_proj): Linear(in_features=512, out_features=2048, bias=False)
          (act_fn): SiLUActivation()
        )
        (shared_expert_gate): Linear(in_features=2048, out_features=1, bias=False)
      )
      (input_layernorm): Qwen3_5MoeRMSNorm((2048,), eps=1e-06)
      (post_attention_layernorm): Qwen3_5MoeRMSNorm((2048,), eps=1e-06)
    )
    (12-14): 3 x Qwen3_5MoeDecoderLayer(
      (linear_attn): Qwen3_5MoeGatedDeltaNet(
        (act): SiLUActivation()
        (conv1d): Conv1d(8192, 8192, kernel_size=(4,), stride=(1,), padding=(3,), groups=8192, bias=False)
        (norm): Qwen3_5MoeRMSNormGated()
        (out_proj): Linear(in_features=4096, out_features=2048, bias=False)
        (in_proj_qkv): Linear(in_features=2048, out_features=8192, bias=False)
        (in_proj_z): Linear(in_features=2048, out_features=4096, bias=False)
        (in_proj_b): Linear(in_features=2048, out_features=32, bias=False)
        (in_proj_a): Linear(in_features=2048, out_features=32, bias=False)
      )
      (mlp): Qwen3_5MoeSparseMoeBlock(
        (gate): Qwen3_5MoeTopKRouter()
        (experts): Qwen3_5MoeExperts(
          (act_fn): SiLUActivation()
        )
        (shared_expert): Qwen3_5MoeMLP(
          (gate_proj): Linear(in_features=2048, out_features=512, bias=False)
          (up_proj): Linear(in_features=2048, out_features=512, bias=False)
          (down_proj): Linear(in_features=512, out_features=2048, bias=False)
          (act_fn): SiLUActivation()
        )
        (shared_expert_gate): Linear(in_features=2048, out_features=1, bias=False)
      )
      (input_layernorm): Qwen3_5MoeRMSNorm((2048,), eps=1e-06)
      (post_attention_layernorm): Qwen3_5MoeRMSNorm((2048,), eps=1e-06)
    )
    (15): Qwen3_5MoeDecoderLayer(
      (self_attn): Qwen3_5MoeAttention(
        (q_proj): Linear(in_features=2048, out_features=8192, bias=False)
        (k_proj): Linear(in_features=2048, out_features=512, bias=False)
        (v_proj): Linear(in_features=2048, out_features=512, bias=False)
        (o_proj): Linear(in_features=4096, out_features=2048, bias=False)
        (q_norm): Qwen3_5MoeRMSNorm((256,), eps=1e-06)
        (k_norm): Qwen3_5MoeRMSNorm((256,), eps=1e-06)
      )
      (mlp): Qwen3_5MoeSparseMoeBlock(
        (gate): Qwen3_5MoeTopKRouter()
        (experts): Qwen3_5MoeExperts(
          (act_fn): SiLUActivation()
        )
        (shared_expert): Qwen3_5MoeMLP(
          (gate_proj): Linear(in_features=2048, out_features=512, bias=False)
          (up_proj): Linear(in_features=2048, out_features=512, bias=False)
          (down_proj): Linear(in_features=512, out_features=2048, bias=False)
          (act_fn): SiLUActivation()
        )
        (shared_expert_gate): Linear(in_features=2048, out_features=1, bias=False)
      )
      (input_layernorm): Qwen3_5MoeRMSNorm((2048,), eps=1e-06)
      (post_attention_layernorm): Qwen3_5MoeRMSNorm((2048,), eps=1e-06)
    )
    (16-18): 3 x Qwen3_5MoeDecoderLayer(
      (linear_attn): Qwen3_5MoeGatedDeltaNet(
        (act): SiLUActivation()
        (conv1d): Conv1d(8192, 8192, kernel_size=(4,), stride=(1,), padding=(3,), groups=8192, bias=False)
        (norm): Qwen3_5MoeRMSNormGated()
        (out_proj): Linear(in_features=4096, out_features=2048, bias=False)
        (in_proj_qkv): Linear(in_features=2048, out_features=8192, bias=False)
        (in_proj_z): Linear(in_features=2048, out_features=4096, bias=False)
        (in_proj_b): Linear(in_features=2048, out_features=32, bias=False)
        (in_proj_a): Linear(in_features=2048, out_features=32, bias=False)
      )
      (mlp): Qwen3_5MoeSparseMoeBlock(
        (gate): Qwen3_5MoeTopKRouter()
        (experts): Qwen3_5MoeExperts(
          (act_fn): SiLUActivation()
        )
        (shared_expert): Qwen3_5MoeMLP(
          (gate_proj): Linear(in_features=2048, out_features=512, bias=False)
          (up_proj): Linear(in_features=2048, out_features=512, bias=False)
          (down_proj): Linear(in_features=512, out_features=2048, bias=False)
          (act_fn): SiLUActivation()
        )
        (shared_expert_gate): Linear(in_features=2048, out_features=1, bias=False)
      )
      (input_layernorm): Qwen3_5MoeRMSNorm((2048,), eps=1e-06)
      (post_attention_layernorm): Qwen3_5MoeRMSNorm((2048,), eps=1e-06)
    )
    (19): Qwen3_5MoeDecoderLayer(
      (self_attn): Qwen3_5MoeAttention(
        (q_proj): Linear(in_features=2048, out_features=8192, bias=False)
        (k_proj): Linear(in_features=2048, out_features=512, bias=False)
        (v_proj): Linear(in_features=2048, out_features=512, bias=False)
        (o_proj): Linear(in_features=4096, out_features=2048, bias=False)
        (q_norm): Qwen3_5MoeRMSNorm((256,), eps=1e-06)
        (k_norm): Qwen3_5MoeRMSNorm((256,), eps=1e-06)
      )
      (mlp): Qwen3_5MoeSparseMoeBlock(
        (gate): Qwen3_5MoeTopKRouter()
        (experts): Qwen3_5MoeExperts(
          (act_fn): SiLUActivation()
        )
        (shared_expert): Qwen3_5MoeMLP(
          (gate_proj): Linear(in_features=2048, out_features=512, bias=False)
          (up_proj): Linear(in_features=2048, out_features=512, bias=False)
          (down_proj): Linear(in_features=512, out_features=2048, bias=False)
          (act_fn): SiLUActivation()
        )
        (shared_expert_gate): Linear(in_features=2048, out_features=1, bias=False)
      )
      (input_layernorm): Qwen3_5MoeRMSNorm((2048,), eps=1e-06)
      (post_attention_layernorm): Qwen3_5MoeRMSNorm((2048,), eps=1e-06)
    )
    (20-22): 3 x Qwen3_5MoeDecoderLayer(
      (linear_attn): Qwen3_5MoeGatedDeltaNet(
        (act): SiLUActivation()
        (conv1d): Conv1d(8192, 8192, kernel_size=(4,), stride=(1,), padding=(3,), groups=8192, bias=False)
        (norm): Qwen3_5MoeRMSNormGated()
        (out_proj): Linear(in_features=4096, out_features=2048, bias=False)
        (in_proj_qkv): Linear(in_features=2048, out_features=8192, bias=False)
        (in_proj_z): Linear(in_features=2048, out_features=4096, bias=False)
        (in_proj_b): Linear(in_features=2048, out_features=32, bias=False)
        (in_proj_a): Linear(in_features=2048, out_features=32, bias=False)
      )
      (mlp): Qwen3_5MoeSparseMoeBlock(
        (gate): Qwen3_5MoeTopKRouter()
        (experts): Qwen3_5MoeExperts(
          (act_fn): SiLUActivation()
        )
        (shared_expert): Qwen3_5MoeMLP(
          (gate_proj): Linear(in_features=2048, out_features=512, bias=False)
          (up_proj): Linear(in_features=2048, out_features=512, bias=False)
          (down_proj): Linear(in_features=512, out_features=2048, bias=False)
          (act_fn): SiLUActivation()
        )
        (shared_expert_gate): Linear(in_features=2048, out_features=1, bias=False)
      )
      (input_layernorm): Qwen3_5MoeRMSNorm((2048,), eps=1e-06)
      (post_attention_layernorm): Qwen3_5MoeRMSNorm((2048,), eps=1e-06)
    )
    (23): Qwen3_5MoeDecoderLayer(
      (self_attn): Qwen3_5MoeAttention(
        (q_proj): Linear(in_features=2048, out_features=8192, bias=False)
        (k_proj): Linear(in_features=2048, out_features=512, bias=False)
        (v_proj): Linear(in_features=2048, out_features=512, bias=False)
        (o_proj): Linear(in_features=4096, out_features=2048, bias=False)
        (q_norm): Qwen3_5MoeRMSNorm((256,), eps=1e-06)
        (k_norm): Qwen3_5MoeRMSNorm((256,), eps=1e-06)
      )
      (mlp): Qwen3_5MoeSparseMoeBlock(
        (gate): Qwen3_5MoeTopKRouter()
        (experts): Qwen3_5MoeExperts(
          (act_fn): SiLUActivation()
        )
        (shared_expert): Qwen3_5MoeMLP(
          (gate_proj): Linear(in_features=2048, out_features=512, bias=False)
          (up_proj): Linear(in_features=2048, out_features=512, bias=False)
          (down_proj): Linear(in_features=512, out_features=2048, bias=False)
          (act_fn): SiLUActivation()
        )
        (shared_expert_gate): Linear(in_features=2048, out_features=1, bias=False)
      )
      (input_layernorm): Qwen3_5MoeRMSNorm((2048,), eps=1e-06)
      (post_attention_layernorm): Qwen3_5MoeRMSNorm((2048,), eps=1e-06)
    )
    (24-26): 3 x Qwen3_5MoeDecoderLayer(
      (linear_attn): Qwen3_5MoeGatedDeltaNet(
        (act): SiLUActivation()
        (conv1d): Conv1d(8192, 8192, kernel_size=(4,), stride=(1,), padding=(3,), groups=8192, bias=False)
        (norm): Qwen3_5MoeRMSNormGated()
        (out_proj): Linear(in_features=4096, out_features=2048, bias=False)
        (in_proj_qkv): Linear(in_features=2048, out_features=8192, bias=False)
        (in_proj_z): Linear(in_features=2048, out_features=4096, bias=False)
        (in_proj_b): Linear(in_features=2048, out_features=32, bias=False)
        (in_proj_a): Linear(in_features=2048, out_features=32, bias=False)
      )
      (mlp): Qwen3_5MoeSparseMoeBlock(
        (gate): Qwen3_5MoeTopKRouter()
        (experts): Qwen3_5MoeExperts(
          (act_fn): SiLUActivation()
        )
        (shared_expert): Qwen3_5MoeMLP(
          (gate_proj): Linear(in_features=2048, out_features=512, bias=False)
          (up_proj): Linear(in_features=2048, out_features=512, bias=False)
          (down_proj): Linear(in_features=512, out_features=2048, bias=False)
          (act_fn): SiLUActivation()
        )
        (shared_expert_gate): Linear(in_features=2048, out_features=1, bias=False)
      )
      (input_layernorm): Qwen3_5MoeRMSNorm((2048,), eps=1e-06)
      (post_attention_layernorm): Qwen3_5MoeRMSNorm((2048,), eps=1e-06)
    )
    (27): Qwen3_5MoeDecoderLayer(
      (self_attn): Qwen3_5MoeAttention(
        (q_proj): Linear(in_features=2048, out_features=8192, bias=False)
        (k_proj): Linear(in_features=2048, out_features=512, bias=False)
        (v_proj): Linear(in_features=2048, out_features=512, bias=False)
        (o_proj): Linear(in_features=4096, out_features=2048, bias=False)
        (q_norm): Qwen3_5MoeRMSNorm((256,), eps=1e-06)
        (k_norm): Qwen3_5MoeRMSNorm((256,), eps=1e-06)
      )
      (mlp): Qwen3_5MoeSparseMoeBlock(
        (gate): Qwen3_5MoeTopKRouter()
        (experts): Qwen3_5MoeExperts(
          (act_fn): SiLUActivation()
        )
        (shared_expert): Qwen3_5MoeMLP(
          (gate_proj): Linear(in_features=2048, out_features=512, bias=False)
          (up_proj): Linear(in_features=2048, out_features=512, bias=False)
          (down_proj): Linear(in_features=512, out_features=2048, bias=False)
          (act_fn): SiLUActivation()
        )
        (shared_expert_gate): Linear(in_features=2048, out_features=1, bias=False)
      )
      (input_layernorm): Qwen3_5MoeRMSNorm((2048,), eps=1e-06)
      (post_attention_layernorm): Qwen3_5MoeRMSNorm((2048,), eps=1e-06)
    )
    (28-30): 3 x Qwen3_5MoeDecoderLayer(
      (linear_attn): Qwen3_5MoeGatedDeltaNet(
        (act): SiLUActivation()
        (conv1d): Conv1d(8192, 8192, kernel_size=(4,), stride=(1,), padding=(3,), groups=8192, bias=False)
        (norm): Qwen3_5MoeRMSNormGated()
        (out_proj): Linear(in_features=4096, out_features=2048, bias=False)
        (in_proj_qkv): Linear(in_features=2048, out_features=8192, bias=False)
        (in_proj_z): Linear(in_features=2048, out_features=4096, bias=False)
        (in_proj_b): Linear(in_features=2048, out_features=32, bias=False)
        (in_proj_a): Linear(in_features=2048, out_features=32, bias=False)
      )
      (mlp): Qwen3_5MoeSparseMoeBlock(
        (gate): Qwen3_5MoeTopKRouter()
        (experts): Qwen3_5MoeExperts(
          (act_fn): SiLUActivation()
        )
        (shared_expert): Qwen3_5MoeMLP(
          (gate_proj): Linear(in_features=2048, out_features=512, bias=False)
          (up_proj): Linear(in_features=2048, out_features=512, bias=False)
          (down_proj): Linear(in_features=512, out_features=2048, bias=False)
          (act_fn): SiLUActivation()
        )
        (shared_expert_gate): Linear(in_features=2048, out_features=1, bias=False)
      )
      (input_layernorm): Qwen3_5MoeRMSNorm((2048,), eps=1e-06)
      (post_attention_layernorm): Qwen3_5MoeRMSNorm((2048,), eps=1e-06)
    )
    (31): Qwen3_5MoeDecoderLayer(
      (self_attn): Qwen3_5MoeAttention(
        (q_proj): Linear(in_features=2048, out_features=8192, bias=False)
        (k_proj): Linear(in_features=2048, out_features=512, bias=False)
        (v_proj): Linear(in_features=2048, out_features=512, bias=False)
        (o_proj): Linear(in_features=4096, out_features=2048, bias=False)
        (q_norm): Qwen3_5MoeRMSNorm((256,), eps=1e-06)
        (k_norm): Qwen3_5MoeRMSNorm((256,), eps=1e-06)
      )
      (mlp): Qwen3_5MoeSparseMoeBlock(
        (gate): Qwen3_5MoeTopKRouter()
        (experts): Qwen3_5MoeExperts(
          (act_fn): SiLUActivation()
        )
        (shared_expert): Qwen3_5MoeMLP(
          (gate_proj): Linear(in_features=2048, out_features=512, bias=False)
          (up_proj): Linear(in_features=2048, out_features=512, bias=False)
          (down_proj): Linear(in_features=512, out_features=2048, bias=False)
          (act_fn): SiLUActivation()
        )
        (shared_expert_gate): Linear(in_features=2048, out_features=1, bias=False)
      )
      (input_layernorm): Qwen3_5MoeRMSNorm((2048,), eps=1e-06)
      (post_attention_layernorm): Qwen3_5MoeRMSNorm((2048,), eps=1e-06)
    )
    (32-34): 3 x Qwen3_5MoeDecoderLayer(
      (linear_attn): Qwen3_5MoeGatedDeltaNet(
        (act): SiLUActivation()
        (conv1d): Conv1d(8192, 8192, kernel_size=(4,), stride=(1,), padding=(3,), groups=8192, bias=False)
        (norm): Qwen3_5MoeRMSNormGated()
        (out_proj): Linear(in_features=4096, out_features=2048, bias=False)
        (in_proj_qkv): Linear(in_features=2048, out_features=8192, bias=False)
        (in_proj_z): Linear(in_features=2048, out_features=4096, bias=False)
        (in_proj_b): Linear(in_features=2048, out_features=32, bias=False)
        (in_proj_a): Linear(in_features=2048, out_features=32, bias=False)
      )
      (mlp): Qwen3_5MoeSparseMoeBlock(
        (gate): Qwen3_5MoeTopKRouter()
        (experts): Qwen3_5MoeExperts(
          (act_fn): SiLUActivation()
        )
        (shared_expert): Qwen3_5MoeMLP(
          (gate_proj): Linear(in_features=2048, out_features=512, bias=False)
          (up_proj): Linear(in_features=2048, out_features=512, bias=False)
          (down_proj): Linear(in_features=512, out_features=2048, bias=False)
          (act_fn): SiLUActivation()
        )
        (shared_expert_gate): Linear(in_features=2048, out_features=1, bias=False)
      )
      (input_layernorm): Qwen3_5MoeRMSNorm((2048,), eps=1e-06)
      (post_attention_layernorm): Qwen3_5MoeRMSNorm((2048,), eps=1e-06)
    )
    (35): Qwen3_5MoeDecoderLayer(
      (self_attn): Qwen3_5MoeAttention(
        (q_proj): Linear(in_features=2048, out_features=8192, bias=False)
        (k_proj): Linear(in_features=2048, out_features=512, bias=False)
        (v_proj): Linear(in_features=2048, out_features=512, bias=False)
        (o_proj): Linear(in_features=4096, out_features=2048, bias=False)
        (q_norm): Qwen3_5MoeRMSNorm((256,), eps=1e-06)
        (k_norm): Qwen3_5MoeRMSNorm((256,), eps=1e-06)
      )
      (mlp): Qwen3_5MoeSparseMoeBlock(
        (gate): Qwen3_5MoeTopKRouter()
        (experts): Qwen3_5MoeExperts(
          (act_fn): SiLUActivation()
        )
        (shared_expert): Qwen3_5MoeMLP(
          (gate_proj): Linear(in_features=2048, out_features=512, bias=False)
          (up_proj): Linear(in_features=2048, out_features=512, bias=False)
          (down_proj): Linear(in_features=512, out_features=2048, bias=False)
          (act_fn): SiLUActivation()
        )
        (shared_expert_gate): Linear(in_features=2048, out_features=1, bias=False)
      )
      (input_layernorm): Qwen3_5MoeRMSNorm((2048,), eps=1e-06)
      (post_attention_layernorm): Qwen3_5MoeRMSNorm((2048,), eps=1e-06)
    )
    (36-38): 3 x Qwen3_5MoeDecoderLayer(
      (linear_attn): Qwen3_5MoeGatedDeltaNet(
        (act): SiLUActivation()
        (conv1d): Conv1d(8192, 8192, kernel_size=(4,), stride=(1,), padding=(3,), groups=8192, bias=False)
        (norm): Qwen3_5MoeRMSNormGated()
        (out_proj): Linear(in_features=4096, out_features=2048, bias=False)
        (in_proj_qkv): Linear(in_features=2048, out_features=8192, bias=False)
        (in_proj_z): Linear(in_features=2048, out_features=4096, bias=False)
        (in_proj_b): Linear(in_features=2048, out_features=32, bias=False)
        (in_proj_a): Linear(in_features=2048, out_features=32, bias=False)
      )
      (mlp): Qwen3_5MoeSparseMoeBlock(
        (gate): Qwen3_5MoeTopKRouter()
        (experts): Qwen3_5MoeExperts(
          (act_fn): SiLUActivation()
        )
        (shared_expert): Qwen3_5MoeMLP(
          (gate_proj): Linear(in_features=2048, out_features=512, bias=False)
          (up_proj): Linear(in_features=2048, out_features=512, bias=False)
          (down_proj): Linear(in_features=512, out_features=2048, bias=False)
          (act_fn): SiLUActivation()
        )
        (shared_expert_gate): Linear(in_features=2048, out_features=1, bias=False)
      )
      (input_layernorm): Qwen3_5MoeRMSNorm((2048,), eps=1e-06)
      (post_attention_layernorm): Qwen3_5MoeRMSNorm((2048,), eps=1e-06)
    )
    (39): Qwen3_5MoeDecoderLayer(
      (self_attn): Qwen3_5MoeAttention(
        (q_proj): Linear(in_features=2048, out_features=8192, bias=False)
        (k_proj): Linear(in_features=2048, out_features=512, bias=False)
        (v_proj): Linear(in_features=2048, out_features=512, bias=False)
        (o_proj): Linear(in_features=4096, out_features=2048, bias=False)
        (q_norm): Qwen3_5MoeRMSNorm((256,), eps=1e-06)
        (k_norm): Qwen3_5MoeRMSNorm((256,), eps=1e-06)
      )
      (mlp): Qwen3_5MoeSparseMoeBlock(
        (gate): Qwen3_5MoeTopKRouter()
        (experts): Qwen3_5MoeExperts(
          (act_fn): SiLUActivation()
        )
        (shared_expert): Qwen3_5MoeMLP(
          (gate_proj): Linear(in_features=2048, out_features=512, bias=False)
          (up_proj): Linear(in_features=2048, out_features=512, bias=False)
          (down_proj): Linear(in_features=512, out_features=2048, bias=False)
          (act_fn): SiLUActivation()
        )
        (shared_expert_gate): Linear(in_features=2048, out_features=1, bias=False)
      )
      (input_layernorm): Qwen3_5MoeRMSNorm((2048,), eps=1e-06)
      (post_attention_layernorm): Qwen3_5MoeRMSNorm((2048,), eps=1e-06)
    )
  )
  (norm): Qwen3_5MoeRMSNorm((2048,), eps=1e-06)
  (rotary_emb): Qwen3_5MoeTextRotaryEmbedding()
)
model.embed_tokens: Embedding(248320, 2048)
model.layers: ModuleList(
  (0-2): 3 x Qwen3_5MoeDecoderLayer(
    (linear_attn): Qwen3_5MoeGatedDeltaNet(
      (act): SiLUActivation()
      (conv1d): Conv1d(8192, 8192, kernel_size=(4,), stride=(1,), padding=(3,), groups=8192, bias=False)
      (norm): Qwen3_5MoeRMSNormGated()
      (out_proj): Linear(in_features=4096, out_features=2048, bias=False)
      (in_proj_qkv): Linear(in_features=2048, out_features=8192, bias=False)
      (in_proj_z): Linear(in_features=2048, out_features=4096, bias=False)
      (in_proj_b): Linear(in_features=2048, out_features=32, bias=False)
      (in_proj_a): Linear(in_features=2048, out_features=32, bias=False)
    )
    (mlp): Qwen3_5MoeSparseMoeBlock(
      (gate): Qwen3_5MoeTopKRouter()
      (experts): Qwen3_5MoeExperts(
        (act_fn): SiLUActivation()
      )
      (shared_expert): Qwen3_5MoeMLP(
        (gate_proj): Linear(in_features=2048, out_features=512, bias=False)
        (up_proj): Linear(in_features=2048, out_features=512, bias=False)
        (down_proj): Linear(in_features=512, out_features=2048, bias=False)
        (act_fn): SiLUActivation()
      )
      (shared_expert_gate): Linear(in_features=2048, out_features=1, bias=False)
    )
    (input_layernorm): Qwen3_5MoeRMSNorm((2048,), eps=1e-06)
    (post_attention_layernorm): Qwen3_5MoeRMSNorm((2048,), eps=1e-06)
  )
  (3): Qwen3_5MoeDecoderLayer(
    (self_attn): Qwen3_5MoeAttention(
      (q_proj): Linear(in_features=2048, out_features=8192, bias=False)
      (k_proj): Linear(in_features=2048, out_features=512, bias=False)
      (v_proj): Linear(in_features=2048, out_features=512, bias=False)
      (o_proj): Linear(in_features=4096, out_features=2048, bias=False)
      (q_norm): Qwen3_5MoeRMSNorm((256,), eps=1e-06)
      (k_norm): Qwen3_5MoeRMSNorm((256,), eps=1e-06)
    )
    (mlp): Qwen3_5MoeSparseMoeBlock(
      (gate): Qwen3_5MoeTopKRouter()
      (experts): Qwen3_5MoeExperts(
        (act_fn): SiLUActivation()
      )
      (shared_expert): Qwen3_5MoeMLP(
        (gate_proj): Linear(in_features=2048, out_features=512, bias=False)
        (up_proj): Linear(in_features=2048, out_features=512, bias=False)
        (down_proj): Linear(in_features=512, out_features=2048, bias=False)
        (act_fn): SiLUActivation()
      )
      (shared_expert_gate): Linear(in_features=2048, out_features=1, bias=False)
    )
    (input_layernorm): Qwen3_5MoeRMSNorm((2048,), eps=1e-06)
    (post_attention_layernorm): Qwen3_5MoeRMSNorm((2048,), eps=1e-06)
  )
  (4-6): 3 x Qwen3_5MoeDecoderLayer(
    (linear_attn): Qwen3_5MoeGatedDeltaNet(
      (act): SiLUActivation()
      (conv1d): Conv1d(8192, 8192, kernel_size=(4,), stride=(1,), padding=(3,), groups=8192, bias=False)
      (norm): Qwen3_5MoeRMSNormGated()
      (out_proj): Linear(in_features=4096, out_features=2048, bias=False)
      (in_proj_qkv): Linear(in_features=2048, out_features=8192, bias=False)
      (in_proj_z): Linear(in_features=2048, out_features=4096, bias=False)
      (in_proj_b): Linear(in_features=2048, out_features=32, bias=False)
      (in_proj_a): Linear(in_features=2048, out_features=32, bias=False)
    )
    (mlp): Qwen3_5MoeSparseMoeBlock(
      (gate): Qwen3_5MoeTopKRouter()
      (experts): Qwen3_5MoeExperts(
        (act_fn): SiLUActivation()
      )
      (shared_expert): Qwen3_5MoeMLP(
        (gate_proj): Linear(in_features=2048, out_features=512, bias=False)
        (up_proj): Linear(in_features=2048, out_features=512, bias=False)
        (down_proj): Linear(in_features=512, out_features=2048, bias=False)
        (act_fn): SiLUActivation()
      )
      (shared_expert_gate): Linear(in_features=2048, out_features=1, bias=False)
    )
    (input_layernorm): Qwen3_5MoeRMSNorm((2048,), eps=1e-06)
    (post_attention_layernorm): Qwen3_5MoeRMSNorm((2048,), eps=1e-06)
  )
  (7): Qwen3_5MoeDecoderLayer(
    (self_attn): Qwen3_5MoeAttention(
      (q_proj): Linear(in_features=2048, out_features=8192, bias=False)
      (k_proj): Linear(in_features=2048, out_features=512, bias=False)
      (v_proj): Linear(in_features=2048, out_features=512, bias=False)
      (o_proj): Linear(in_features=4096, out_features=2048, bias=False)
      (q_norm): Qwen3_5MoeRMSNorm((256,), eps=1e-06)
      (k_norm): Qwen3_5MoeRMSNorm((256,), eps=1e-06)
    )
    (mlp): Qwen3_5MoeSparseMoeBlock(
      (gate): Qwen3_5MoeTopKRouter()
      (experts): Qwen3_5MoeExperts(
        (act_fn): SiLUActivation()
      )
      (shared_expert): Qwen3_5MoeMLP(
        (gate_proj): Linear(in_features=2048, out_features=512, bias=False)
        (up_proj): Linear(in_features=2048, out_features=512, bias=False)
        (down_proj): Linear(in_features=512, out_features=2048, bias=False)
        (act_fn): SiLUActivation()
      )
      (shared_expert_gate): Linear(in_features=2048, out_features=1, bias=False)
    )
    (input_layernorm): Qwen3_5MoeRMSNorm((2048,), eps=1e-06)
    (post_attention_layernorm): Qwen3_5MoeRMSNorm((2048,), eps=1e-06)
  )
  (8-10): 3 x Qwen3_5MoeDecoderLayer(
    (linear_attn): Qwen3_5MoeGatedDeltaNet(
      (act): SiLUActivation()
      (conv1d): Conv1d(8192, 8192, kernel_size=(4,), stride=(1,), padding=(3,), groups=8192, bias=False)
      (norm): Qwen3_5MoeRMSNormGated()
      (out_proj): Linear(in_features=4096, out_features=2048, bias=False)
      (in_proj_qkv): Linear(in_features=2048, out_features=8192, bias=False)
      (in_proj_z): Linear(in_features=2048, out_features=4096, bias=False)
      (in_proj_b): Linear(in_features=2048, out_features=32, bias=False)
      (in_proj_a): Linear(in_features=2048, out_features=32, bias=False)
    )
    (mlp): Qwen3_5MoeSparseMoeBlock(
      (gate): Qwen3_5MoeTopKRouter()
      (experts): Qwen3_5MoeExperts(
        (act_fn): SiLUActivation()
      )
      (shared_expert): Qwen3_5MoeMLP(
        (gate_proj): Linear(in_features=2048, out_features=512, bias=False)
        (up_proj): Linear(in_features=2048, out_features=512, bias=False)
        (down_proj): Linear(in_features=512, out_features=2048, bias=False)
        (act_fn): SiLUActivation()
      )
      (shared_expert_gate): Linear(in_features=2048, out_features=1, bias=False)
    )
    (input_layernorm): Qwen3_5MoeRMSNorm((2048,), eps=1e-06)
    (post_attention_layernorm): Qwen3_5MoeRMSNorm((2048,), eps=1e-06)
  )
  (11): Qwen3_5MoeDecoderLayer(
    (self_attn): Qwen3_5MoeAttention(
      (q_proj): Linear(in_features=2048, out_features=8192, bias=False)
      (k_proj): Linear(in_features=2048, out_features=512, bias=False)
      (v_proj): Linear(in_features=2048, out_features=512, bias=False)
      (o_proj): Linear(in_features=4096, out_features=2048, bias=False)
      (q_norm): Qwen3_5MoeRMSNorm((256,), eps=1e-06)
      (k_norm): Qwen3_5MoeRMSNorm((256,), eps=1e-06)
    )
    (mlp): Qwen3_5MoeSparseMoeBlock(
      (gate): Qwen3_5MoeTopKRouter()
      (experts): Qwen3_5MoeExperts(
        (act_fn): SiLUActivation()
      )
      (shared_expert): Qwen3_5MoeMLP(
        (gate_proj): Linear(in_features=2048, out_features=512, bias=False)
        (up_proj): Linear(in_features=2048, out_features=512, bias=False)
        (down_proj): Linear(in_features=512, out_features=2048, bias=False)
        (act_fn): SiLUActivation()
      )
      (shared_expert_gate): Linear(in_features=2048, out_features=1, bias=False)
    )
    (input_layernorm): Qwen3_5MoeRMSNorm((2048,), eps=1e-06)
    (post_attention_layernorm): Qwen3_5MoeRMSNorm((2048,), eps=1e-06)
  )
  (12-14): 3 x Qwen3_5MoeDecoderLayer(
    (linear_attn): Qwen3_5MoeGatedDeltaNet(
      (act): SiLUActivation()
      (conv1d): Conv1d(8192, 8192, kernel_size=(4,), stride=(1,), padding=(3,), groups=8192, bias=False)
      (norm): Qwen3_5MoeRMSNormGated()
      (out_proj): Linear(in_features=4096, out_features=2048, bias=False)
      (in_proj_qkv): Linear(in_features=2048, out_features=8192, bias=False)
      (in_proj_z): Linear(in_features=2048, out_features=4096, bias=False)
      (in_proj_b): Linear(in_features=2048, out_features=32, bias=False)
      (in_proj_a): Linear(in_features=2048, out_features=32, bias=False)
    )
    (mlp): Qwen3_5MoeSparseMoeBlock(
      (gate): Qwen3_5MoeTopKRouter()
      (experts): Qwen3_5MoeExperts(
        (act_fn): SiLUActivation()
      )
      (shared_expert): Qwen3_5MoeMLP(
        (gate_proj): Linear(in_features=2048, out_features=512, bias=False)
        (up_proj): Linear(in_features=2048, out_features=512, bias=False)
        (down_proj): Linear(in_features=512, out_features=2048, bias=False)
        (act_fn): SiLUActivation()
      )
      (shared_expert_gate): Linear(in_features=2048, out_features=1, bias=False)
    )
    (input_layernorm): Qwen3_5MoeRMSNorm((2048,), eps=1e-06)
    (post_attention_layernorm): Qwen3_5MoeRMSNorm((2048,), eps=1e-06)
  )
  (15): Qwen3_5MoeDecoderLayer(
    (self_attn): Qwen3_5MoeAttention(
      (q_proj): Linear(in_features=2048, out_features=8192, bias=False)
      (k_proj): Linear(in_features=2048, out_features=512, bias=False)
      (v_proj): Linear(in_features=2048, out_features=512, bias=False)
      (o_proj): Linear(in_features=4096, out_features=2048, bias=False)
      (q_norm): Qwen3_5MoeRMSNorm((256,), eps=1e-06)
      (k_norm): Qwen3_5MoeRMSNorm((256,), eps=1e-06)
    )
    (mlp): Qwen3_5MoeSparseMoeBlock(
      (gate): Qwen3_5MoeTopKRouter()
      (experts): Qwen3_5MoeExperts(
        (act_fn): SiLUActivation()
      )
      (shared_expert): Qwen3_5MoeMLP(
        (gate_proj): Linear(in_features=2048, out_features=512, bias=False)
        (up_proj): Linear(in_features=2048, out_features=512, bias=False)
        (down_proj): Linear(in_features=512, out_features=2048, bias=False)
        (act_fn): SiLUActivation()
      )
      (shared_expert_gate): Linear(in_features=2048, out_features=1, bias=False)
    )
    (input_layernorm): Qwen3_5MoeRMSNorm((2048,), eps=1e-06)
    (post_attention_layernorm): Qwen3_5MoeRMSNorm((2048,), eps=1e-06)
  )
  (16-18): 3 x Qwen3_5MoeDecoderLayer(
    (linear_attn): Qwen3_5MoeGatedDeltaNet(
      (act): SiLUActivation()
      (conv1d): Conv1d(8192, 8192, kernel_size=(4,), stride=(1,), padding=(3,), groups=8192, bias=False)
      (norm): Qwen3_5MoeRMSNormGated()
      (out_proj): Linear(in_features=4096, out_features=2048, bias=False)
      (in_proj_qkv): Linear(in_features=2048, out_features=8192, bias=False)
      (in_proj_z): Linear(in_features=2048, out_features=4096, bias=False)
      (in_proj_b): Linear(in_features=2048, out_features=32, bias=False)
      (in_proj_a): Linear(in_features=2048, out_features=32, bias=False)
    )
    (mlp): Qwen3_5MoeSparseMoeBlock(
      (gate): Qwen3_5MoeTopKRouter()
      (experts): Qwen3_5MoeExperts(
        (act_fn): SiLUActivation()
      )
      (shared_expert): Qwen3_5MoeMLP(
        (gate_proj): Linear(in_features=2048, out_features=512, bias=False)
        (up_proj): Linear(in_features=2048, out_features=512, bias=False)
        (down_proj): Linear(in_features=512, out_features=2048, bias=False)
        (act_fn): SiLUActivation()
      )
      (shared_expert_gate): Linear(in_features=2048, out_features=1, bias=False)
    )
    (input_layernorm): Qwen3_5MoeRMSNorm((2048,), eps=1e-06)
    (post_attention_layernorm): Qwen3_5MoeRMSNorm((2048,), eps=1e-06)
  )
  (19): Qwen3_5MoeDecoderLayer(
    (self_attn): Qwen3_5MoeAttention(
      (q_proj): Linear(in_features=2048, out_features=8192, bias=False)
      (k_proj): Linear(in_features=2048, out_features=512, bias=False)
      (v_proj): Linear(in_features=2048, out_features=512, bias=False)
      (o_proj): Linear(in_features=4096, out_features=2048, bias=False)
      (q_norm): Qwen3_5MoeRMSNorm((256,), eps=1e-06)
      (k_norm): Qwen3_5MoeRMSNorm((256,), eps=1e-06)
    )
    (mlp): Qwen3_5MoeSparseMoeBlock(
      (gate): Qwen3_5MoeTopKRouter()
      (experts): Qwen3_5MoeExperts(
        (act_fn): SiLUActivation()
      )
      (shared_expert): Qwen3_5MoeMLP(
        (gate_proj): Linear(in_features=2048, out_features=512, bias=False)
        (up_proj): Linear(in_features=2048, out_features=512, bias=False)
        (down_proj): Linear(in_features=512, out_features=2048, bias=False)
        (act_fn): SiLUActivation()
      )
      (shared_expert_gate): Linear(in_features=2048, out_features=1, bias=False)
    )
    (input_layernorm): Qwen3_5MoeRMSNorm((2048,), eps=1e-06)
    (post_attention_layernorm): Qwen3_5MoeRMSNorm((2048,), eps=1e-06)
  )
  (20-22): 3 x Qwen3_5MoeDecoderLayer(
    (linear_attn): Qwen3_5MoeGatedDeltaNet(
      (act): SiLUActivation()
      (conv1d): Conv1d(8192, 8192, kernel_size=(4,), stride=(1,), padding=(3,), groups=8192, bias=False)
      (norm): Qwen3_5MoeRMSNormGated()
      (out_proj): Linear(in_features=4096, out_features=2048, bias=False)
      (in_proj_qkv): Linear(in_features=2048, out_features=8192, bias=False)
      (in_proj_z): Linear(in_features=2048, out_features=4096, bias=False)
      (in_proj_b): Linear(in_features=2048, out_features=32, bias=False)
      (in_proj_a): Linear(in_features=2048, out_features=32, bias=False)
    )
    (mlp): Qwen3_5MoeSparseMoeBlock(
      (gate): Qwen3_5MoeTopKRouter()
      (experts): Qwen3_5MoeExperts(
        (act_fn): SiLUActivation()
      )
      (shared_expert): Qwen3_5MoeMLP(
        (gate_proj): Linear(in_features=2048, out_features=512, bias=False)
        (up_proj): Linear(in_features=2048, out_features=512, bias=False)
        (down_proj): Linear(in_features=512, out_features=2048, bias=False)
        (act_fn): SiLUActivation()
      )
      (shared_expert_gate): Linear(in_features=2048, out_features=1, bias=False)
    )
    (input_layernorm): Qwen3_5MoeRMSNorm((2048,), eps=1e-06)
    (post_attention_layernorm): Qwen3_5MoeRMSNorm((2048,), eps=1e-06)
  )
  (23): Qwen3_5MoeDecoderLayer(
    (self_attn): Qwen3_5MoeAttention(
      (q_proj): Linear(in_features=2048, out_features=8192, bias=False)
      (k_proj): Linear(in_features=2048, out_features=512, bias=False)
      (v_proj): Linear(in_features=2048, out_features=512, bias=False)
      (o_proj): Linear(in_features=4096, out_features=2048, bias=False)
      (q_norm): Qwen3_5MoeRMSNorm((256,), eps=1e-06)
      (k_norm): Qwen3_5MoeRMSNorm((256,), eps=1e-06)
    )
    (mlp): Qwen3_5MoeSparseMoeBlock(
      (gate): Qwen3_5MoeTopKRouter()
      (experts): Qwen3_5MoeExperts(
        (act_fn): SiLUActivation()
      )
      (shared_expert): Qwen3_5MoeMLP(
        (gate_proj): Linear(in_features=2048, out_features=512, bias=False)
        (up_proj): Linear(in_features=2048, out_features=512, bias=False)
        (down_proj): Linear(in_features=512, out_features=2048, bias=False)
        (act_fn): SiLUActivation()
      )
      (shared_expert_gate): Linear(in_features=2048, out_features=1, bias=False)
    )
    (input_layernorm): Qwen3_5MoeRMSNorm((2048,), eps=1e-06)
    (post_attention_layernorm): Qwen3_5MoeRMSNorm((2048,), eps=1e-06)
  )
  (24-26): 3 x Qwen3_5MoeDecoderLayer(
    (linear_attn): Qwen3_5MoeGatedDeltaNet(
      (act): SiLUActivation()
      (conv1d): Conv1d(8192, 8192, kernel_size=(4,), stride=(1,), padding=(3,), groups=8192, bias=False)
      (norm): Qwen3_5MoeRMSNormGated()
      (out_proj): Linear(in_features=4096, out_features=2048, bias=False)
      (in_proj_qkv): Linear(in_features=2048, out_features=8192, bias=False)
      (in_proj_z): Linear(in_features=2048, out_features=4096, bias=False)
      (in_proj_b): Linear(in_features=2048, out_features=32, bias=False)
      (in_proj_a): Linear(in_features=2048, out_features=32, bias=False)
    )
    (mlp): Qwen3_5MoeSparseMoeBlock(
      (gate): Qwen3_5MoeTopKRouter()
      (experts): Qwen3_5MoeExperts(
        (act_fn): SiLUActivation()
      )
      (shared_expert): Qwen3_5MoeMLP(
        (gate_proj): Linear(in_features=2048, out_features=512, bias=False)
        (up_proj): Linear(in_features=2048, out_features=512, bias=False)
        (down_proj): Linear(in_features=512, out_features=2048, bias=False)
        (act_fn): SiLUActivation()
      )
      (shared_expert_gate): Linear(in_features=2048, out_features=1, bias=False)
    )
    (input_layernorm): Qwen3_5MoeRMSNorm((2048,), eps=1e-06)
    (post_attention_layernorm): Qwen3_5MoeRMSNorm((2048,), eps=1e-06)
  )
  (27): Qwen3_5MoeDecoderLayer(
    (self_attn): Qwen3_5MoeAttention(
      (q_proj): Linear(in_features=2048, out_features=8192, bias=False)
      (k_proj): Linear(in_features=2048, out_features=512, bias=False)
      (v_proj): Linear(in_features=2048, out_features=512, bias=False)
      (o_proj): Linear(in_features=4096, out_features=2048, bias=False)
      (q_norm): Qwen3_5MoeRMSNorm((256,), eps=1e-06)
      (k_norm): Qwen3_5MoeRMSNorm((256,), eps=1e-06)
    )
    (mlp): Qwen3_5MoeSparseMoeBlock(
      (gate): Qwen3_5MoeTopKRouter()
      (experts): Qwen3_5MoeExperts(
        (act_fn): SiLUActivation()
      )
      (shared_expert): Qwen3_5MoeMLP(
        (gate_proj): Linear(in_features=2048, out_features=512, bias=False)
        (up_proj): Linear(in_features=2048, out_features=512, bias=False)
        (down_proj): Linear(in_features=512, out_features=2048, bias=False)
        (act_fn): SiLUActivation()
      )
      (shared_expert_gate): Linear(in_features=2048, out_features=1, bias=False)
    )
    (input_layernorm): Qwen3_5MoeRMSNorm((2048,), eps=1e-06)
    (post_attention_layernorm): Qwen3_5MoeRMSNorm((2048,), eps=1e-06)
  )
  (28-30): 3 x Qwen3_5MoeDecoderLayer(
    (linear_attn): Qwen3_5MoeGatedDeltaNet(
      (act): SiLUActivation()
      (conv1d): Conv1d(8192, 8192, kernel_size=(4,), stride=(1,), padding=(3,), groups=8192, bias=False)
      (norm): Qwen3_5MoeRMSNormGated()
      (out_proj): Linear(in_features=4096, out_features=2048, bias=False)
      (in_proj_qkv): Linear(in_features=2048, out_features=8192, bias=False)
      (in_proj_z): Linear(in_features=2048, out_features=4096, bias=False)
      (in_proj_b): Linear(in_features=2048, out_features=32, bias=False)
      (in_proj_a): Linear(in_features=2048, out_features=32, bias=False)
    )
    (mlp): Qwen3_5MoeSparseMoeBlock(
      (gate): Qwen3_5MoeTopKRouter()
      (experts): Qwen3_5MoeExperts(
        (act_fn): SiLUActivation()
      )
      (shared_expert): Qwen3_5MoeMLP(
        (gate_proj): Linear(in_features=2048, out_features=512, bias=False)
        (up_proj): Linear(in_features=2048, out_features=512, bias=False)
        (down_proj): Linear(in_features=512, out_features=2048, bias=False)
        (act_fn): SiLUActivation()
      )
      (shared_expert_gate): Linear(in_features=2048, out_features=1, bias=False)
    )
    (input_layernorm): Qwen3_5MoeRMSNorm((2048,), eps=1e-06)
    (post_attention_layernorm): Qwen3_5MoeRMSNorm((2048,), eps=1e-06)
  )
  (31): Qwen3_5MoeDecoderLayer(
    (self_attn): Qwen3_5MoeAttention(
      (q_proj): Linear(in_features=2048, out_features=8192, bias=False)
      (k_proj): Linear(in_features=2048, out_features=512, bias=False)
      (v_proj): Linear(in_features=2048, out_features=512, bias=False)
      (o_proj): Linear(in_features=4096, out_features=2048, bias=False)
      (q_norm): Qwen3_5MoeRMSNorm((256,), eps=1e-06)
      (k_norm): Qwen3_5MoeRMSNorm((256,), eps=1e-06)
    )
    (mlp): Qwen3_5MoeSparseMoeBlock(
      (gate): Qwen3_5MoeTopKRouter()
      (experts): Qwen3_5MoeExperts(
        (act_fn): SiLUActivation()
      )
      (shared_expert): Qwen3_5MoeMLP(
        (gate_proj): Linear(in_features=2048, out_features=512, bias=False)
        (up_proj): Linear(in_features=2048, out_features=512, bias=False)
        (down_proj): Linear(in_features=512, out_features=2048, bias=False)
        (act_fn): SiLUActivation()
      )
      (shared_expert_gate): Linear(in_features=2048, out_features=1, bias=False)
    )
    (input_layernorm): Qwen3_5MoeRMSNorm((2048,), eps=1e-06)
    (post_attention_layernorm): Qwen3_5MoeRMSNorm((2048,), eps=1e-06)
  )
  (32-34): 3 x Qwen3_5MoeDecoderLayer(
    (linear_attn): Qwen3_5MoeGatedDeltaNet(
      (act): SiLUActivation()
      (conv1d): Conv1d(8192, 8192, kernel_size=(4,), stride=(1,), padding=(3,), groups=8192, bias=False)
      (norm): Qwen3_5MoeRMSNormGated()
      (out_proj): Linear(in_features=4096, out_features=2048, bias=False)
      (in_proj_qkv): Linear(in_features=2048, out_features=8192, bias=False)
      (in_proj_z): Linear(in_features=2048, out_features=4096, bias=False)
      (in_proj_b): Linear(in_features=2048, out_features=32, bias=False)
      (in_proj_a): Linear(in_features=2048, out_features=32, bias=False)
    )
    (mlp): Qwen3_5MoeSparseMoeBlock(
      (gate): Qwen3_5MoeTopKRouter()
      (experts): Qwen3_5MoeExperts(
        (act_fn): SiLUActivation()
      )
      (shared_expert): Qwen3_5MoeMLP(
        (gate_proj): Linear(in_features=2048, out_features=512, bias=False)
        (up_proj): Linear(in_features=2048, out_features=512, bias=False)
        (down_proj): Linear(in_features=512, out_features=2048, bias=False)
        (act_fn): SiLUActivation()
      )
      (shared_expert_gate): Linear(in_features=2048, out_features=1, bias=False)
    )
    (input_layernorm): Qwen3_5MoeRMSNorm((2048,), eps=1e-06)
    (post_attention_layernorm): Qwen3_5MoeRMSNorm((2048,), eps=1e-06)
  )
  (35): Qwen3_5MoeDecoderLayer(
    (self_attn): Qwen3_5MoeAttention(
      (q_proj): Linear(in_features=2048, out_features=8192, bias=False)
      (k_proj): Linear(in_features=2048, out_features=512, bias=False)
      (v_proj): Linear(in_features=2048, out_features=512, bias=False)
      (o_proj): Linear(in_features=4096, out_features=2048, bias=False)
      (q_norm): Qwen3_5MoeRMSNorm((256,), eps=1e-06)
      (k_norm): Qwen3_5MoeRMSNorm((256,), eps=1e-06)
    )
    (mlp): Qwen3_5MoeSparseMoeBlock(
      (gate): Qwen3_5MoeTopKRouter()
      (experts): Qwen3_5MoeExperts(
        (act_fn): SiLUActivation()
      )
      (shared_expert): Qwen3_5MoeMLP(
        (gate_proj): Linear(in_features=2048, out_features=512, bias=False)
        (up_proj): Linear(in_features=2048, out_features=512, bias=False)
        (down_proj): Linear(in_features=512, out_features=2048, bias=False)
        (act_fn): SiLUActivation()
      )
      (shared_expert_gate): Linear(in_features=2048, out_features=1, bias=False)
    )
    (input_layernorm): Qwen3_5MoeRMSNorm((2048,), eps=1e-06)
    (post_attention_layernorm): Qwen3_5MoeRMSNorm((2048,), eps=1e-06)
  )
  (36-38): 3 x Qwen3_5MoeDecoderLayer(
    (linear_attn): Qwen3_5MoeGatedDeltaNet(
      (act): SiLUActivation()
      (conv1d): Conv1d(8192, 8192, kernel_size=(4,), stride=(1,), padding=(3,), groups=8192, bias=False)
      (norm): Qwen3_5MoeRMSNormGated()
      (out_proj): Linear(in_features=4096, out_features=2048, bias=False)
      (in_proj_qkv): Linear(in_features=2048, out_features=8192, bias=False)
      (in_proj_z): Linear(in_features=2048, out_features=4096, bias=False)
      (in_proj_b): Linear(in_features=2048, out_features=32, bias=False)
      (in_proj_a): Linear(in_features=2048, out_features=32, bias=False)
    )
    (mlp): Qwen3_5MoeSparseMoeBlock(
      (gate): Qwen3_5MoeTopKRouter()
      (experts): Qwen3_5MoeExperts(
        (act_fn): SiLUActivation()
      )
      (shared_expert): Qwen3_5MoeMLP(
        (gate_proj): Linear(in_features=2048, out_features=512, bias=False)
        (up_proj): Linear(in_features=2048, out_features=512, bias=False)
        (down_proj): Linear(in_features=512, out_features=2048, bias=False)
        (act_fn): SiLUActivation()
      )
      (shared_expert_gate): Linear(in_features=2048, out_features=1, bias=False)
    )
    (input_layernorm): Qwen3_5MoeRMSNorm((2048,), eps=1e-06)
    (post_attention_layernorm): Qwen3_5MoeRMSNorm((2048,), eps=1e-06)
  )
  (39): Qwen3_5MoeDecoderLayer(
    (self_attn): Qwen3_5MoeAttention(
      (q_proj): Linear(in_features=2048, out_features=8192, bias=False)
      (k_proj): Linear(in_features=2048, out_features=512, bias=False)
      (v_proj): Linear(in_features=2048, out_features=512, bias=False)
      (o_proj): Linear(in_features=4096, out_features=2048, bias=False)
      (q_norm): Qwen3_5MoeRMSNorm((256,), eps=1e-06)
      (k_norm): Qwen3_5MoeRMSNorm((256,), eps=1e-06)
    )
    (mlp): Qwen3_5MoeSparseMoeBlock(
      (gate): Qwen3_5MoeTopKRouter()
      (experts): Qwen3_5MoeExperts(
        (act_fn): SiLUActivation()
      )
      (shared_expert): Qwen3_5MoeMLP(
        (gate_proj): Linear(in_features=2048, out_features=512, bias=False)
        (up_proj): Linear(in_features=2048, out_features=512, bias=False)
        (down_proj): Linear(in_features=512, out_features=2048, bias=False)
        (act_fn): SiLUActivation()
      )
      (shared_expert_gate): Linear(in_features=2048, out_features=1, bias=False)
    )
    (input_layernorm): Qwen3_5MoeRMSNorm((2048,), eps=1e-06)
    (post_attention_layernorm): Qwen3_5MoeRMSNorm((2048,), eps=1e-06)
  )
)
model.layers.0: Qwen3_5MoeDecoderLayer(
  (linear_attn): Qwen3_5MoeGatedDeltaNet(
    (act): SiLUActivation()
    (conv1d): Conv1d(8192, 8192, kernel_size=(4,), stride=(1,), padding=(3,), groups=8192, bias=False)
    (norm): Qwen3_5MoeRMSNormGated()
    (out_proj): Linear(in_features=4096, out_features=2048, bias=False)
    (in_proj_qkv): Linear(in_features=2048, out_features=8192, bias=False)
    (in_proj_z): Linear(in_features=2048, out_features=4096, bias=False)
    (in_proj_b): Linear(in_features=2048, out_features=32, bias=False)
    (in_proj_a): Linear(in_features=2048, out_features=32, bias=False)
  )
  (mlp): Qwen3_5MoeSparseMoeBlock(
    (gate): Qwen3_5MoeTopKRouter()
    (experts): Qwen3_5MoeExperts(
      (act_fn): SiLUActivation()
    )
    (shared_expert): Qwen3_5MoeMLP(
      (gate_proj): Linear(in_features=2048, out_features=512, bias=False)
      (up_proj): Linear(in_features=2048, out_features=512, bias=False)
      (down_proj): Linear(in_features=512, out_features=2048, bias=False)
      (act_fn): SiLUActivation()
    )
    (shared_expert_gate): Linear(in_features=2048, out_features=1, bias=False)
  )
  (input_layernorm): Qwen3_5MoeRMSNorm((2048,), eps=1e-06)
  (post_attention_layernorm): Qwen3_5MoeRMSNorm((2048,), eps=1e-06)
)
model.layers.0.linear_attn: Qwen3_5MoeGatedDeltaNet(
  (act): SiLUActivation()
  (conv1d): Conv1d(8192, 8192, kernel_size=(4,), stride=(1,), padding=(3,), groups=8192, bias=False)
  (norm): Qwen3_5MoeRMSNormGated()
  (out_proj): Linear(in_features=4096, out_features=2048, bias=False)
  (in_proj_qkv): Linear(in_features=2048, out_features=8192, bias=False)
  (in_proj_z): Linear(in_features=2048, out_features=4096, bias=False)
  (in_proj_b): Linear(in_features=2048, out_features=32, bias=False)
  (in_proj_a): Linear(in_features=2048, out_features=32, bias=False)
)
model.layers.0.linear_attn.act: SiLUActivation()
model.layers.0.linear_attn.conv1d: Conv1d(8192, 8192, kernel_size=(4,), stride=(1,), padding=(3,), groups=8192, bias=False)
model.layers.0.linear_attn.norm: Qwen3_5MoeRMSNormGated()
model.layers.0.linear_attn.out_proj: Linear(in_features=4096, out_features=2048, bias=False)
model.layers.0.linear_attn.in_proj_qkv: Linear(in_features=2048, out_features=8192, bias=False)
model.layers.0.linear_attn.in_proj_z: Linear(in_features=2048, out_features=4096, bias=False)
model.layers.0.linear_attn.in_proj_b: Linear(in_features=2048, out_features=32, bias=False)
model.layers.0.linear_attn.in_proj_a: Linear(in_features=2048, out_features=32, bias=False)
model.layers.0.mlp: Qwen3_5MoeSparseMoeBlock(
  (gate): Qwen3_5MoeTopKRouter()
  (experts): Qwen3_5MoeExperts(
    (act_fn): SiLUActivation()
  )
  (shared_expert): Qwen3_5MoeMLP(
    (gate_proj): Linear(in_features=2048, out_features=512, bias=False)
    (up_proj): Linear(in_features=2048, out_features=512, bias=False)
    (down_proj): Linear(in_features=512, out_features=2048, bias=False)
    (act_fn): SiLUActivation()
  )
  (shared_expert_gate): Linear(in_features=2048, out_features=1, bias=False)
)
model.layers.0.mlp.gate: Qwen3_5MoeTopKRouter()
model.layers.0.mlp.experts: Qwen3_5MoeExperts(
  (act_fn): SiLUActivation()
)
model.layers.0.mlp.experts.act_fn: SiLUActivation()
model.layers.0.mlp.shared_expert: Qwen3_5MoeMLP(
  (gate_proj): Linear(in_features=2048, out_features=512, bias=False)
  (up_proj): Linear(in_features=2048, out_features=512, bias=False)
  (down_proj): Linear(in_features=512, out_features=2048, bias=False)
  (act_fn): SiLUActivation()
)
model.layers.0.mlp.shared_expert.gate_proj: Linear(in_features=2048, out_features=512, bias=False)
model.layers.0.mlp.shared_expert.up_proj: Linear(in_features=2048, out_features=512, bias=False)
model.layers.0.mlp.shared_expert.down_proj: Linear(in_features=512, out_features=2048, bias=False)
model.layers.0.mlp.shared_expert.act_fn: SiLUActivation()
model.layers.0.mlp.shared_expert_gate: Linear(in_features=2048, out_features=1, bias=False)
model.layers.0.input_layernorm: Qwen3_5MoeRMSNorm((2048,), eps=1e-06)
model.layers.0.post_attention_layernorm: Qwen3_5MoeRMSNorm((2048,), eps=1e-06)
model.layers.1: Qwen3_5MoeDecoderLayer(
  (linear_attn): Qwen3_5MoeGatedDeltaNet(
    (act): SiLUActivation()
    (conv1d): Conv1d(8192, 8192, kernel_size=(4,), stride=(1,), padding=(3,), groups=8192, bias=False)
    (norm): Qwen3_5MoeRMSNormGated()
    (out_proj): Linear(in_features=4096, out_features=2048, bias=False)
    (in_proj_qkv): Linear(in_features=2048, out_features=8192, bias=False)
    (in_proj_z): Linear(in_features=2048, out_features=4096, bias=False)
    (in_proj_b): Linear(in_features=2048, out_features=32, bias=False)
    (in_proj_a): Linear(in_features=2048, out_features=32, bias=False)
  )
  (mlp): Qwen3_5MoeSparseMoeBlock(
    (gate): Qwen3_5MoeTopKRouter()
    (experts): Qwen3_5MoeExperts(
      (act_fn): SiLUActivation()
    )
    (shared_expert): Qwen3_5MoeMLP(
      (gate_proj): Linear(in_features=2048, out_features=512, bias=False)
      (up_proj): Linear(in_features=2048, out_features=512, bias=False)
      (down_proj): Linear(in_features=512, out_features=2048, bias=False)
      (act_fn): SiLUActivation()
    )
    (shared_expert_gate): Linear(in_features=2048, out_features=1, bias=False)
  )
  (input_layernorm): Qwen3_5MoeRMSNorm((2048,), eps=1e-06)
  (post_attention_layernorm): Qwen3_5MoeRMSNorm((2048,), eps=1e-06)
)
model.layers.1.linear_attn: Qwen3_5MoeGatedDeltaNet(
  (act): SiLUActivation()
  (conv1d): Conv1d(8192, 8192, kernel_size=(4,), stride=(1,), padding=(3,), groups=8192, bias=False)
  (norm): Qwen3_5MoeRMSNormGated()
  (out_proj): Linear(in_features=4096, out_features=2048, bias=False)
  (in_proj_qkv): Linear(in_features=2048, out_features=8192, bias=False)
  (in_proj_z): Linear(in_features=2048, out_features=4096, bias=False)
  (in_proj_b): Linear(in_features=2048, out_features=32, bias=False)
  (in_proj_a): Linear(in_features=2048, out_features=32, bias=False)
)
model.layers.1.linear_attn.act: SiLUActivation()
model.layers.1.linear_attn.conv1d: Conv1d(8192, 8192, kernel_size=(4,), stride=(1,), padding=(3,), groups=8192, bias=False)
model.layers.1.linear_attn.norm: Qwen3_5MoeRMSNormGated()
model.layers.1.linear_attn.out_proj: Linear(in_features=4096, out_features=2048, bias=False)
model.layers.1.linear_attn.in_proj_qkv: Linear(in_features=2048, out_features=8192, bias=False)
…
model.layers.2.linear_attn.out_proj: Linear(in_features=4096, out_features=2048, bias=False)
model.layers.2.linear_attn.in_proj_qkv: Linear(in_features=2048, out_features=8192, bias=False)
model.layers.2.linear_attn.in_proj_z: Linear(in_features=2048, out_features=4096, bias=False)
model.layers.2.linear_attn.in_proj_b: Linear(in_features=2048, out_features=32, bias=False)
model.layers.2.linear_attn.in_proj_a: Linear(in_features=2048, out_features=32, bias=False)
model.layers.2.mlp: Qwen3_5MoeSparseMoeBlock(
  (gate): Qwen3_5MoeTopKRouter()
  (experts): Qwen3_5MoeExperts(
    (act_fn): SiLUActivation()
  )
  (shared_expert): Qwen3_5MoeMLP(
    (gate_proj): Linear(in_features=2048, out_features=512, bias=False)
    (up_proj): Linear(in_features=2048, out_features=512, bias=False)
    (down_proj): Linear(in_features=512, out_features=2048, bias=False)
    (act_fn): SiLUActivation()
  )
  (shared_expert_gate): Linear(in_features=2048, out_features=1, bias=False)
)
model.layers.2.mlp.gate: Qwen3_5MoeTopKRouter()
model.layers.2.mlp.experts: Qwen3_5MoeExperts(
  (act_fn): SiLUActivation()
)
model.layers.2.mlp.experts.act_fn: SiLUActivation()
model.layers.2.mlp.shared_expert: Qwen3_5MoeMLP(
  (gate_proj): Linear(in_features=2048, out_features=512, bias=False)
  (up_proj): Linear(in_features=2048, out_features=512, bias=False)
  (down_proj): Linear(in_features=512, out_features=2048, bias=False)
  (act_fn): SiLUActivation()
)
model.layers.2.mlp.shared_expert.gate_proj: Linear(in_features=2048, out_features=512, bias=False)
model.layers.2.mlp.shared_expert.up_proj: Linear(in_features=2048, out_features=512, bias=False)
model.layers.2.mlp.shared_expert.down_proj: Linear(in_features=512, out_features=2048, bias=False)
model.layers.2.mlp.shared_expert.act_fn: SiLUActivation()
model.layers.2.mlp.shared_expert_gate: Linear(in_features=2048, out_features=1, bias=False)
model.layers.2.input_layernorm: Qwen3_5MoeRMSNorm((2048,), eps=1e-06)
model.layers.2.post_attention_layernorm: Qwen3_5MoeRMSNorm((2048,), eps=1e-06)
model.layers.3: Qwen3_5MoeDecoderLayer(
  (self_attn): Qwen3_5MoeAttention(
    (q_proj): Linear(in_features=2048, out_features=8192, bias=False)
    (k_proj): Linear(in_features=2048, out_features=512, bias=False)
    (v_proj): Linear(in_features=2048, out_features=512, bias=False)
    (o_proj): Linear(in_features=4096, out_features=2048, bias=False)
    (q_norm): Qwen3_5MoeRMSNorm((256,), eps=1e-06)
    (k_norm): Qwen3_5MoeRMSNorm((256,), eps=1e-06)
  )
  (mlp): Qwen3_5MoeSparseMoeBlock(
    (gate): Qwen3_5MoeTopKRouter()
    (experts): Qwen3_5MoeExperts(
      (act_fn): SiLUActivation()
    )
    (shared_expert): Qwen3_5MoeMLP(
      (gate_proj): Linear(in_features=2048, out_features=512, bias=False)
      (up_proj): Linear(in_features=2048, out_features=512, bias=False)
      (down_proj): Linear(in_features=512, out_features=2048, bias=False)
      (act_fn): SiLUActivation()
    )
    (shared_expert_gate): Linear(in_features=2048, out_features=1, bias=False)
  )
  (input_layernorm): Qwen3_5MoeRMSNorm((2048,), eps=1e-06)
  (post_attention_layernorm): Qwen3_5MoeRMSNorm((2048,), eps=1e-06)
)
model.layers.3.self_attn: Qwen3_5MoeAttention(
  (q_proj): Linear(in_features=2048, out_features=8192, bias=False)
  (k_proj): Linear(in_features=2048, out_features=512, bias=False)
  (v_proj): Linear(in_features=2048, out_features=512, bias=False)
  (o_proj): Linear(in_features=4096, out_features=2048, bias=False)
  (q_norm): Qwen3_5MoeRMSNorm((256,), eps=1e-06)
  (k_norm): Qwen3_5MoeRMSNorm((256,), eps=1e-06)
)
model.layers.3.self_attn.q_proj: Linear(in_features=2048, out_features=8192, bias=False)
model.layers.3.self_attn.k_proj: Linear(in_features=2048, out_features=512, bias=False)
model.layers.3.self_attn.v_proj: Linear(in_features=2048, out_features=512, bias=False)
model.layers.3.self_attn.o_proj: Linear(in_features=4096, out_features=2048, bias=False)
model.layers.3.self_attn.q_norm: Qwen3_5MoeRMSNorm((256,), eps=1e-06)
model.layers.3.self_attn.k_norm: Qwen3_5MoeRMSNorm((256,), eps=1e-06)
model.layers.3.mlp: Qwen3_5MoeSparseMoeBlock(
  (gate): Qwen3_5MoeTopKRouter()
  (experts): Qwen3_5MoeExperts(
    (act_fn): SiLUActivation()
  )
  (shared_expert): Qwen3_5MoeMLP(
    (gate_proj): Linear(in_features=2048, out_features=512, bias=False)
    (up_proj): Linear(in_features=2048, out_features=512, bias=False)
    (down_proj): Linear(in_features=512, out_features=2048, bias=False)
    (act_fn): SiLUActivation()
  )
  (shared_expert_gate): Linear(in_features=2048, out_features=1, bias=False)
)
model.layers.3.mlp.gate: Qwen3_5MoeTopKRouter()
model.layers.3.mlp.experts: Qwen3_5MoeExperts(
  (act_fn): SiLUActivation()
)
model.layers.3.mlp.experts.act_fn: SiLUActivation()
model.layers.3.mlp.shared_expert: Qwen3_5MoeMLP(
  (gate_proj): Linear(in_features=2048, out_features=512, bias=False)
  (up_proj): Linear(in_features=2048, out_features=512, bias=False)
  (down_proj): Linear(in_features=512, out_features=2048, bias=False)
  (act_fn): SiLUActivation()
)
model.layers.3.mlp.shared_expert.gate_proj: Linear(in_features=2048, out_features=512, bias=False)
model.layers.3.mlp.shared_expert.up_proj: Linear(in_features=2048, out_features=512, bias=False)
model.layers.3.mlp.shared_expert.down_proj: Linear(in_features=512, out_features=2048, bias=False)
model.layers.3.mlp.shared_expert.act_fn: SiLUActivation()
model.layers.3.mlp.shared_expert_gate: Linear(in_features=2048, out_features=1, bias=False)
model.layers.3.input_layernorm: Qwen3_5MoeRMSNorm((2048,), eps=1e-06)
model.layers.3.post_attention_layernorm: Qwen3_5MoeRMSNorm((2048,), eps=1e-06)
model.layers.4: Qwen3_5MoeDecoderLayer(
  (linear_attn): Qwen3_5MoeGatedDeltaNet(
    (act): SiLUActivation()
    (conv1d): Conv1d(8192, 8192, kernel_size=(4,), stride=(1,), padding=(3,), groups=8192, bias=False)
    (norm): Qwen3_5MoeRMSNormGated()
    (out_proj): Linear(in_features=4096, out_features=2048, bias=False)
    (in_proj_qkv): Linear(in_features=2048, out_features=8192, bias=False)
    (in_proj_z): Linear(in_features=2048, out_features=4096, bias=False)
    (in_proj_b): Linear(in_features=2048, out_features=32, bias=False)
    (in_proj_a): Linear(in_features=2048, out_features=32, bias=False)
  )
  (mlp): Qwen3_5MoeSparseMoeBlock(
    (gate): Qwen3_5MoeTopKRouter()
    (experts): Qwen3_5MoeExperts(
      (act_fn): SiLUActivation()
    )
    (shared_expert): Qwen3_5MoeMLP(
      (gate_proj): Linear(in_features=2048, out_features=512, bias=False)
      (up_proj): Linear(in_features=2048, out_features=512, bias=False)
      (down_proj): Linear(in_features=512, out_features=2048, bias=False)
      (act_fn): SiLUActivation()
    )
    (shared_expert_gate): Linear(in_features=2048, out_features=1, bias=False)
  )
  (input_layernorm): Qwen3_5MoeRMSNorm((2048,), eps=1e-06)
  (post_attention_layernorm): Qwen3_5MoeRMSNorm((2048,), eps=1e-06)
)
model.layers.4.linear_attn: Qwen3_5MoeGatedDeltaNet(
  (act): SiLUActivation()
  (conv1d): Conv1d(8192, 8192, kernel_size=(4,), stride=(1,), padding=(3,), groups=8192, bias=False)
  (norm): Qwen3_5MoeRMSNormGated()
  (out_proj): Linear(in_features=4096, out_features=2048, bias=False)
  (in_proj_qkv): Linear(in_features=2048, out_features=8192, bias=False)
  (in_proj_z): Linear(in_features=2048, out_features=4096, bias=False)
  (in_proj_b): Linear(in_features=2048, out_features=32, bias=False)
  (in_proj_a): Linear(in_features=2048, out_features=32, bias=False)
)
model.layers.4.linear_attn.act: SiLUActivation()
model.layers.4.linear_attn.conv1d: Conv1d(8192, 8192, kernel_size=(4,), stride=(1,), padding=(3,), groups=8192, bias=False)
model.layers.4.linear_attn.norm: Qwen3_5MoeRMSNormGated()
model.layers.4.linear_attn.out_proj: Linear(in_features=4096, out_features=2048, bias=False)
model.layers.4.linear_attn.in_proj_qkv: Linear(in_features=2048, out_features=8192, bias=False)
…
model.layers.38.linear_attn.out_proj: Linear(in_features=4096, out_features=2048, bias=False)
model.layers.38.linear_attn.in_proj_qkv: Linear(in_features=2048, out_features=8192, bias=False)
model.layers.38.linear_attn.in_proj_z: Linear(in_features=2048, out_features=4096, bias=False)
model.layers.38.linear_attn.in_proj_b: Linear(in_features=2048, out_features=32, bias=False)
model.layers.38.linear_attn.in_proj_a: Linear(in_features=2048, out_features=32, bias=False)
model.layers.38.mlp: Qwen3_5MoeSparseMoeBlock(
  (gate): Qwen3_5MoeTopKRouter()
  (experts): Qwen3_5MoeExperts(
    (act_fn): SiLUActivation()
  )
  (shared_expert): Qwen3_5MoeMLP(
    (gate_proj): Linear(in_features=2048, out_features=512, bias=False)
    (up_proj): Linear(in_features=2048, out_features=512, bias=False)
    (down_proj): Linear(in_features=512, out_features=2048, bias=False)
    (act_fn): SiLUActivation()
  )
  (shared_expert_gate): Linear(in_features=2048, out_features=1, bias=False)
)
model.layers.38.mlp.gate: Qwen3_5MoeTopKRouter()
model.layers.38.mlp.experts: Qwen3_5MoeExperts(
  (act_fn): SiLUActivation()
)
model.layers.38.mlp.experts.act_fn: SiLUActivation()
model.layers.38.mlp.shared_expert: Qwen3_5MoeMLP(
  (gate_proj): Linear(in_features=2048, out_features=512, bias=False)
  (up_proj): Linear(in_features=2048, out_features=512, bias=False)
  (down_proj): Linear(in_features=512, out_features=2048, bias=False)
  (act_fn): SiLUActivation()
)
model.layers.38.mlp.shared_expert.gate_proj: Linear(in_features=2048, out_features=512, bias=False)
model.layers.38.mlp.shared_expert.up_proj: Linear(in_features=2048, out_features=512, bias=False)
model.layers.38.mlp.shared_expert.down_proj: Linear(in_features=512, out_features=2048, bias=False)
model.layers.38.mlp.shared_expert.act_fn: SiLUActivation()
model.layers.38.mlp.shared_expert_gate: Linear(in_features=2048, out_features=1, bias=False)
model.layers.38.input_layernorm: Qwen3_5MoeRMSNorm((2048,), eps=1e-06)
model.layers.38.post_attention_layernorm: Qwen3_5MoeRMSNorm((2048,), eps=1e-06)
model.layers.39: Qwen3_5MoeDecoderLayer(
  (self_attn): Qwen3_5MoeAttention(
    (q_proj): Linear(in_features=2048, out_features=8192, bias=False)
    (k_proj): Linear(in_features=2048, out_features=512, bias=False)
    (v_proj): Linear(in_features=2048, out_features=512, bias=False)
    (o_proj): Linear(in_features=4096, out_features=2048, bias=False)
    (q_norm): Qwen3_5MoeRMSNorm((256,), eps=1e-06)
    (k_norm): Qwen3_5MoeRMSNorm((256,), eps=1e-06)
  )
  (mlp): Qwen3_5MoeSparseMoeBlock(
    (gate): Qwen3_5MoeTopKRouter()
    (experts): Qwen3_5MoeExperts(
      (act_fn): SiLUActivation()
    )
    (shared_expert): Qwen3_5MoeMLP(
      (gate_proj): Linear(in_features=2048, out_features=512, bias=False)
      (up_proj): Linear(in_features=2048, out_features=512, bias=False)
      (down_proj): Linear(in_features=512, out_features=2048, bias=False)
      (act_fn): SiLUActivation()
    )
    (shared_expert_gate): Linear(in_features=2048, out_features=1, bias=False)
  )
  (input_layernorm): Qwen3_5MoeRMSNorm((2048,), eps=1e-06)
  (post_attention_layernorm): Qwen3_5MoeRMSNorm((2048,), eps=1e-06)
)
model.layers.39.self_attn: Qwen3_5MoeAttention(
  (q_proj): Linear(in_features=2048, out_features=8192, bias=False)
  (k_proj): Linear(in_features=2048, out_features=512, bias=False)
  (v_proj): Linear(in_features=2048, out_features=512, bias=False)
  (o_proj): Linear(in_features=4096, out_features=2048, bias=False)
  (q_norm): Qwen3_5MoeRMSNorm((256,), eps=1e-06)
  (k_norm): Qwen3_5MoeRMSNorm((256,), eps=1e-06)
)
model.layers.39.self_attn.q_proj: Linear(in_features=2048, out_features=8192, bias=False)
model.layers.39.self_attn.k_proj: Linear(in_features=2048, out_features=512, bias=False)
model.layers.39.self_attn.v_proj: Linear(in_features=2048, out_features=512, bias=False)
model.layers.39.self_attn.o_proj: Linear(in_features=4096, out_features=2048, bias=False)
model.layers.39.self_attn.q_norm: Qwen3_5MoeRMSNorm((256,), eps=1e-06)
model.layers.39.self_attn.k_norm: Qwen3_5MoeRMSNorm((256,), eps=1e-06)
model.layers.39.mlp: Qwen3_5MoeSparseMoeBlock(
  (gate): Qwen3_5MoeTopKRouter()
  (experts): Qwen3_5MoeExperts(
    (act_fn): SiLUActivation()
  )
  (shared_expert): Qwen3_5MoeMLP(
    (gate_proj): Linear(in_features=2048, out_features=512, bias=False)
    (up_proj): Linear(in_features=2048, out_features=512, bias=False)
    (down_proj): Linear(in_features=512, out_features=2048, bias=False)
    (act_fn): SiLUActivation()
  )
  (shared_expert_gate): Linear(in_features=2048, out_features=1, bias=False)
)
model.layers.39.mlp.gate: Qwen3_5MoeTopKRouter()
model.layers.39.mlp.experts: Qwen3_5MoeExperts(
  (act_fn): SiLUActivation()
)
model.layers.39.mlp.experts.act_fn: SiLUActivation()
model.layers.39.mlp.shared_expert: Qwen3_5MoeMLP(
  (gate_proj): Linear(in_features=2048, out_features=512, bias=False)
  (up_proj): Linear(in_features=2048, out_features=512, bias=False)
  (down_proj): Linear(in_features=512, out_features=2048, bias=False)
  (act_fn): SiLUActivation()
)
model.layers.39.mlp.shared_expert.gate_proj: Linear(in_features=2048, out_features=512, bias=False)
model.layers.39.mlp.shared_expert.up_proj: Linear(in_features=2048, out_features=512, bias=False)
model.layers.39.mlp.shared_expert.down_proj: Linear(in_features=512, out_features=2048, bias=False)
model.layers.39.mlp.shared_expert.act_fn: SiLUActivation()
…
